DQN_first/11/save/main_model_000002.pth (torch_old, 274770 bytes, 6 tensors)

main_model.InputLayer.weight f4 [256, 6]
00000000: 404f d43b e085 073d 0c15 bebe 761a 943e
00000010: 8c2b 243e 5e2e c73e bebb 983e 182c 293e
00000020: be5f 923e 2e62 b73e 7216 22be b4aa bdbd
00000030: b411 d2bd cc19 9c3d 8819 52bd 51c9 25be
00000040: 60f7 d93d 7edf a4be 72b1 8b3e d02c d8bc
00000050: ac54 503e c423 793e 70a8 843c f823 663e
00000060: e041 963c 646b 823e 4031 b73e 0080 d23d
00000070: 1c28 b03e 6471 8a3d c06f af3d 663b d0be
00000080: 96a4 8bbe 5077 88be 001a 793e cab1 bf3e
00000090: 9142 98be 60aa 2abd 8073 c13d 20bf b8be
000000a0: 24eb 653e 98d9 2d3e 145b 3f3e 0007 093e
000000b0: 8a26 cf3e 0024 bd3a 10b6 c93e 725c 67be
000000c0: 20d6 1b3d 3cac a23e 04e5 673e 96f6 c3be
000000d0: e634 bb3e 88a8 24be 7009 363d 1986 b9be
000000e0: f0ae 8fbc d45f c3be 808c ed3d 1c93 2e3e
000000f0: 0184 97be f048 5b3d 7c8e b5bd 6489 cabd
00000100: 8095 fe3d 5f3b 81be 3acc cf3e 12f0 be3e
00000110: e02e 973c 183a 26be 6392 23be 38d7 103d
00000120: e04b 61bc 8472 d9bd d4bc 113e 30a1 bdbd
00000130: 847b 1a3e 50b6 a3be 2fcc c4be 7a36 3abe
00000140: d0d0 cf3e a0a4 8cbd 6e94 b7be b40a c7bd
00000150: 3cc8 6a3e d4c1 b33e 7492 b83e 54eb 92be
00000160: 7490 3cbe 3c93 e8bd 6054 213d faf0 90be
00000170: 705a 833d d40f 1a3e 4c46 cdbe 62eb 8a3e
00000180: 5067 e93c 5000 f6bc acab a4bd 24d3 64be
00000190: f817 183d d06d 07be 0cac 583e 89bd bbbe
000001a0: f059 c2bd 4895 593d b05f 6c3d 5875 a0be
000001b0: 00ed 66bc 88e9 1fbe 6837 103e 0e54 cd3e
000001c0: 988e bcbd b02d 893e e04c 9d3c 22b9 abbe
000001d0: 56c6 39be 3670 b6be 6e3a 843e 08b9 143d
000001e0: 0011 a53b 0ee2 9c3e ebb1 c3be 2aad 97be
000001f0: fa9d 3cbe 8a86 c6be 287f 53bd 14c1 7abe
00000200: 427e 9a3e 380f ab3d 20f4 74bd 7c83 b0be
00000210: bcf6 5bbe a809 4f3e 00ad b03b 4404 8e3d
00000220: 5cfa a9be 9442 463e a8cb 633d 7ea8 1fbe
00000230: ca25 c6be f429 8e3d 10b2 1d3e e89e 053e
00000240: 464c 8fbe 9ce0 563e 680a 09bd 4943 8dbe
00000250: bc91 533e ccbe f0bd c22e 03be 9bb0 82be
00000260: 5417 3c3e f48c 523e 5881 1ebd 0341 b3be
00000270: 648b b83d 86f5 0cbe 1a18 b6be 3a2c 8f3e
00000280: ae96 b73e a8d8 0fbd 2c82 ce3e d9f4 a6be
00000290: 3619 b1be 3cb2 083e 5b65 b1be bd45 9abe
000002a0: 9749 acbe f01d c63c 5086 8f3e 4257 bc3e
000002b0: 5712 b4be c0b6 a6be c076 d0bb 34fa 0d3e
000002c0: 10bd 7c3e 9646 993e c832 4cbd 4071 cb3e
000002d0: 7047 14be f028 273d 94b9 7e3e 688a 263d
000002e0: 8834 653e 5073 db3d 44f7 4e3e a997 38be
000002f0: 8819 8a3e 7aaa cf3e e365 cebe 0cc5 8dbe
00000300: 762a b93e 3ed8 37be c033 a3bc a006 3ebd
00000310: ea62 bcbe b894 96bd f00c 78bd 10bf 893d
00000320: 1f69 25be a2b7 b63e 9c86 843e 9269 0abe
00000330: 7a11 bb3e c046 9e3d 7836 fe3d 84fe c3be
00000340: 9171 bfbe 3c4c 6fbe 8186 a9be c826 85be
00000350: 30de 703e 2e6e 15be 58a0 e03d 40ce 0dbc
00000360: 5a9e af3e ac54 af3e 4787 41be bcac c53e
00000370: 1c0b 063e 58e8 513e 148c ab3e 8869 033e
00000380: 46a8 b03e 1004 bd3c 5c29 803d 5418 8abe
00000390: d03d d23d 387a 71bd 9442 2e3e 142c 0b3e
000003a0: a68a cd3e e70d 66be acfa a93d 62bf 10be
000003b0: b091 293e 08f0 783d f8e8 4dbd 1ad2 bfbe
000003c0: 09da b9be b91f b9be 4047 1e3c f070 c7bc
000003d0: 2487 753e 181d aa3d 08d5 cc3d ae4b 36be
000003e0: 6672 0ebe c036 c9bd f4e1 653e 80ec 823d
000003f0: 288e 13be 50ae 98bd 006c 823a 9348 c8be
0.006479174 0.033086658 -0.37125432 0.28926438 0.16032237 0.38902563 0.29830736 0.16520727
0.2858867 0.35817093 -0.15828875 -0.09261075 -0.10257283 0.07622108 -0.05129388 -0.16190077
0.10642886 -0.3220176 0.27283818 -0.026388556 0.203448 0.2433005 0.016193599 0.22474658
0.018341959 0.25472558 0.35779762 0.1027832 0.344056 0.06759909 0.085662365 -0.40670317
-0.27274007 -0.26653528 0.24326324 0.3744033 -0.29738286 -0.04166639 0.09445858 -0.36083317
0.2245298 0.16977537 0.18687087 0.13381577 0.4045909 0.0014430285 0.39396715 -0.22593859
0.038046002 0.3177203 0.22645956 -0.38274068 0.36563796 -0.16079915 0.044442594 -0.3623512
-0.017539471 -0.3815905 0.11599064 0.17048305 -0.29592898 0.053536355 -0.08865067 -0.098894864
0.124308586 -0.2524061 0.405855 0.37292534 0.018454969 -0.16233099 -0.15973811 0.0353615
-0.013751 -0.10617545 0.14232188 -0.0925926 0.1508618 -0.3197503 -0.3843703 -0.18184844
0.40589 -0.06867337 -0.3585543 -0.09718838 0.22927946 0.35108817 0.36049235 -0.28695166
-0.1841448 -0.11356208 0.039387107 -0.2830885 0.06413734 0.150451 -0.40092695 0.27132708
0.028491646 -0.030029446 -0.08040556 -0.22346169 0.037132233 -0.13225484 0.2115938 -0.3666804
-0.094898105 0.05312088 0.057708442 -0.31339526 -0.014094591 -0.15616429 0.14083636 0.4010319
-0.09206885 0.2679267 0.019201696 -0.33539683 -0.18142065 -0.35632485 0.25825828 0.036309272
0.005037427 0.30641216 -0.38221678 -0.296243 -0.18419638 -0.3877452 -0.051634938 -0.24487716
0.30174452 0.08352512 -0.05980313 -0.34475315 -0.2148084 0.20218527 0.005391717 0.06934407
-0.33198822 0.19361335 0.055614144 -0.15591618 -0.38700706 0.06941596 0.15399957 0.13048899
-0.2798788 0.20984119 -0.03345719 -0.27590397 0.20661062 -0.117551416 -0.12810805 -0.25525364
0.18368274 0.20561582 -0.03869757 -0.35010538 0.09010962 -0.13765535 -0.35565263 0.2796343
0.35857147 -0.03511873 0.40333688 -0.3260868 -0.34589547 0.13349241 -0.3464764 -0.3013133
-0.33649895 0.024184197 0.2803216 0.36785322 -0.35170242 -0.32561302 -0.0063618124 0.13864976
0.24681497 0.29936665 -0.049853116 0.3973484 -0.14480376 0.040810525 0.2487548 0.04065934
0.2238332 0.107153535 0.20211512 -0.18026604 0.26972604 0.4055975 -0.40312108 -0.27689397
0.36165208 -0.17953584 -0.019922137 -0.046393037 -0.36794215 -0.073525846 -0.060559213 0.067258954
-0.16153382 0.35686976 0.2588395 -0.13516834 0.3653677 0.07728338 0.12412733 -0.38280118
-0.37391332 -0.23368925 -0.3311043 -0.2600615 0.23522258 -0.14592811 0.10968083 -0.008655131
0.343005 0.34244287 -0.1889926 0.38608348 0.13090175 0.20498788 0.3350531 0.12833226
0.34503382 0.023073226 0.06257889 -0.26971686 0.10265696 -0.058954448 0.17017585 0.13591033
0.40144843 -0.22466241 0.08299765 -0.14135507 0.16559482 0.060775787 -0.050271004 -0.37464982
-0.3629916 -0.36157015 0.009660542 -0.024345845 0.23977333 0.083063304 0.1000157 -0.17802307
-0.13910827 -0.09824896 0.22449476 0.06392765 -0.14409697 -0.074551225 0.0009950399 -0.3911787

main_model.InputLayer.bias f4 [256]
00000000: 0088 fc3d d86f bebe 4325 8abe f407 90be
00000010: 8fc1 5cbe 2029 203e 64fd b63e 1cae 503e
00000020: fc09 843d 006c ee39 035b a3be 6c1a a73e
00000030: 403c 64bc e6ca abbe f8db 443e 00dc a3bc
00000040: 92b7 4ebe 3ecd 933e 3485 8cbd 98c0 6c3d
00000050: a02d 303e 7c10 b53e fc1c cabd 9486 8ebe
00000060: 2485 c73e c719 61be ee37 943e 8825 d93d
00000070: 1e73 ca3e e61a 8a3e 8ae5 a3be 080d d2bd
00000080: b080 16be 687c 463e 48c3 41bd 183d 273d
00000090: baa7 92be 88f4 143e b4e6 603e b633 b0be
000000a0: 60e4 ee3d 5850 7dbe 1878 30bd a0f7 debc
000000b0: b8d9 c43e 208a 0b3d b8ad 14bd 67e5 22be
000000c0: 5836 ba3e e56c b4be 5ce5 013e 1e35 cc3e
000000d0: 3cac b3bd aaa4 86be befe b13e 44c9 983e
000000e0: 3293 ae3e ea4a 29be e3fe 57be c090 683d
000000f0: c062 5e3d 38ff 703e 90b1 b93c e49f 443e
00000100: ebf2 b7be cc92 8ebd b86b 5a3d 88ba 123e
00000110: acb7 debd ed4c 26be 6e92 9d3e 58a6 0dbd
00000120: d83c 3fbd e420 6a3e 00ea 3b3d 0c3e c23e
00000130: 607a b7bd 5094 b63e 2ab0 87be d851 153e
00000140: ef7e 42be a875 603e 40c3 6fbd 44d4 873e
00000150: 04a4 bdbd fe7e 32be ab7d b3be 2c0b b73e
00000160: 7615 cb3e 3b3d c7be 4051 6ebd 58e4 b13e
00000170: 1cff e4bd 5051 c33c ed70 2bbe babe a0be
00000180: d065 21be d895 9a3e 5015 c13e ce02 d03e
00000190: 4c8e c6be 8803 113e 70ff 303d e4cd 9a3e
000001a0: 2c2a 5dbe 6396 57be ac93 7c3e 4445 12be
000001b0: 076b 9cbe 19ad b8be c0d7 75be 38fb babd
000001c0: a065 62bc 70f8 433e 60cf 973c 9c7d a5bd
000001d0: ea8c ca3e cae6 b9be 40f9 abbe f66d a6be
000001e0: e86f 1d3d e023 d33c 2822 cabe 7015 db3c
000001f0: 240d 4f3e bc2a b23e fa95 6abe 5472 1d3e
00000200: b634 09be 2e19 33be 12e7 8dbe 3844 ea3d
00000210: b6dd 18be b095 023e b656 c33e 20c6 e4bd
00000220: 50c8 b23e 30ed 18be afae 87be 9a40 78be
00000230: 2414 e3bd 860f 1dbe f00e 4ebd 2e3a 75be
00000240: 90b8 a9bd 6809 90be 44c9 d1bd 38f8 1e3d
00000250: 227e 5cbe d6c2 11be 5065 6e3e 1064 95bc
00000260: 6948 37be f284 cb3e 10c7 c43e 6fab bdbe
00000270: 2cfb e4bd 3c72 3e3e f6cf 9cbe 64fb 77be
00000280: dfb1 98be 1bac 93be 7579 7ebe 10e1 413e
00000290: 9df9 b6be 382a d13d 8ea3 ba3e 78c2 513e
000002a0: ce66 6cbe f82e 753e 7e26 bbbe f81a da3d
000002b0: 0c33 c3be 96a0 8f3e be60 81be a46b 0cbe
000002c0: fedb 9fbe a435 943e 44dc b8be 8c2a 6e3e
000002d0: 92e9 cc3e 91c6 d0be 1e01 78be 71e0 adbe
000002e0: f00c a0bc 6cb4 6a3e 5c88 0e3e 4053 dc3d
000002f0: e4c0 b03d 1664 8d3e a0d1 b4be 3841 293d
00000300: b0f5 30bd 47f8 a9be ac93 85bd 882e 1a3d
00000310: e40e 433e 508d 0cbd 3648 b73e 3cf2 ab3e
00000320: 422b ce3e 1f29 28be a863 4ebd 628f a83e
00000330: c72c 4ebe f092 743e 1c00 cc3e a439 7d3e
00000340: c167 58be ccf7 0d3e f0e0 82bc 72be 57be
00000350: 76fd c3be c93e b3be 20ad 033c 1361 b4be
00000360: 465d 9e3e f057 403d d0b7 cd3d dacd c9be
00000370: 881a 06be 92dc 5abe 0e60 c63e 361c 5abe
00000380: 5b07 bbbe 74ae 053e ec5e 5a3e e9f8 50be
00000390: e0e7 f9bd 642a 3f3e e073 9abd 94a9 883e
000003a0: 5aca 1ebe da22 12be f017 a33e 5826 b6bd
000003b0: 10ac c0be e063 993c 40a9 c03e 9c61 c33e
000003c0: eccd 00be f0a5 0abe d057 84bc 3074 7c3e
000003d0: b0e3 f73d 7c54 8fbe e4d7 b43d 764b a53e
000003e0: 4719 a7be 854d cebe 90be d0bc f8f7 033d
000003f0: 4caf 2bbe 22d8 99be 6016 053e e2d0 c4be
0.123306274 -0.37194705 -0.26981553 -0.28131068 -0.21558212 0.15640688 0.35740197 0.20378917
0.06447217 0.00045475364 -0.31905374 0.32637346 -0.01393038 -0.33553237 0.19224536 -0.020002365
-0.20187214 0.28867525 -0.06861344 0.05780086 0.17204905 0.3536414 -0.098688096 -0.2783705
0.38968766 -0.2198249 0.2894892 0.10602862 0.39540952 0.26973647 -0.32011062 -0.10256392
-0.14697528 0.19383395 -0.047305375 0.040829748 -0.2864359 0.14546406 0.21963006 -0.34414452
0.11664653 -0.2473768 -0.04308328 -0.027217686 0.38447356 0.034067273 -0.036298484 -0.15907823
0.36369586 -0.3523933 0.1268515 0.39884275 -0.087730855 -0.26297504 0.34764665 0.29841053
0.34096676 -0.16532484 -0.21093325 0.05677867 0.054293394 0.23534858 0.022667676 0.19201618
-0.3592752 -0.06961593 0.053325385 0.14328969 -0.108748764 -0.16240282 0.3077578 -0.034582466
-0.046688884 0.2286411 0.045877457 0.37937963 -0.08958888 0.35660028 -0.2650159 0.14582002
-0.18993734 0.21919882 -0.058535814 0.26529133 -0.09259799 -0.17431256 -0.35056815 0.3575071
0.3966481 -0.38913903 -0.058182955 0.34744525 -0.11181471 0.023842484 -0.16742297 -0.31395513
-0.15761495 0.30192447 0.37711573 0.4062714 -0.3878044 0.14161503 0.043212354 0.30235207
-0.21598119 -0.21053462 0.24665707 -0.14284235 -0.30550405 -0.36069563 -0.24008083 -0.091299474
-0.013818175 0.1913774 0.018531501 -0.08080599 0.39560634 -0.3630889 -0.335886 -0.3250577
0.0384368 0.025773942 -0.39479184 0.02674362 0.20219857 0.3479823 -0.22908774 0.15375644
-0.13399014 -0.17490074 -0.27715355 0.11438793 -0.14928326 0.12752414 0.38152093 -0.11170602
0.3491845 -0.1493423 -0.2650046 -0.24243394 -0.11087826 -0.15337953 -0.050307214 -0.23947975
-0.08287156 -0.28132176 -0.102434665 0.03881094 -0.21532491 -0.1423448 0.23280835 -0.01823619
-0.17898716 0.39749867 0.38433123 -0.37044856 -0.1118072 0.18598264 -0.30627412 -0.24216992
-0.29823205 -0.28842244 -0.2485102 0.18933511 -0.35737315 0.10213131 0.36452907 0.2048434
-0.23086092 0.23943698 -0.36552805 0.10649675 -0.38124883 0.28052205 -0.2526912 -0.13712937
-0.31222528 0.28947175 -0.3610555 0.23258418 0.4002195 -0.40776494 -0.24219176 -0.33960298
-0.01953742 0.22920388 0.13919204 0.10758066 0.08630541 0.27615422 -0.3531618 0.041321963
-0.043203056 -0.33197233 -0.06522307 0.037642032 0.19048649 -0.034314454 0.3579728 0.33583248
0.40267378 -0.16421936 -0.05038801 0.32921892 -0.20134269 0.23884177 0.39843833 0.2472902
-0.21133329 0.13864058 -0.0159764 -0.21068743 -0.38279313 -0.3500884 0.008036882 -0.35230312
0.30930537 0.046958864 0.10044825 -0.39414865 -0.13096058 -0.21373203 0.3874516 -0.21299824
-0.3652905 0.1305483 0.21325272 -0.20407452 -0.1220243 0.18668514 -0.07541633 0.26691878
-0.15506878 -0.14271107 0.318542 -0.08894032 -0.37631273 0.018724382 0.37629128 0.38160408
-0.12578553 -0.13539863 -0.016155154 0.24653697 0.12103975 -0.27994144 0.0883024 0.32284135
-0.32636473 -0.40293518 -0.025481492 0.032218903 -0.16766089 -0.3004771 0.12996817 -0.38440615

main_model.hiddenlayer_0.weight f4 [256, 256]
00000000: ec66 6cbd 08e1 01bc 3e02 523d 9e52 3bbd
00000010: 60ea f3bb 54b1 8b3c 2262 563d 3096 2abd
00000020: f8c8 013d e0bf 1fbb 541a 55bd e815 bc3c
00000030: ac63 b43c b807 80bc 8a30 363d 40cf 773c
00000040: d4db 6ebd bc2d dc3c 6037 113d d027 dfbc
00000050: 66d7 1cbd 0433 6e3d 1406 b3bc 14c4 0abd
00000060: bca5 b23c 907a e4bb 58f5 36bd d013 2f3d
00000070: 08c2 87bc 98a5 d1bc 5c25 1a3d 902d 8a3c
00000080: 48e4 dbbc 9c63 183d 8086 453b f068 f2bc
00000090: e0ef c73c 9062 983b 866c 2b3d 00b5 7e3d
000000a0: 18b8 583c 44ff 80bc 3a4a 083d 80b7 b9bb
000000b0: 68fb 023c 0034 de3c 5056 f23c 6c34 6c3d
000000c0: d013 b93b eacb 313d 40b2 6bbc 80d8 c2bb
000000d0: a034 8cbc cc6e 37bd 60ea 7b3d 0c3e 11bd
000000e0: b04d 9fbb 20dd 24bb 0061 c23a 4e78 203d
000000f0: 24cf d03c 9858 67bc f2a9 00bd a01c 8b3c
00000100: c2e6 473d 28a0 283d b8d4 22bd e2c3 663d
00000110: c87a 7c3d bc73 4ebd 94cc 2fbd 0edb 393d
00000120: 70c2 9ebb 7e8c 763d d0ad 633c 4079 38bb
00000130: 2ea0 53bd 1e85 7e3d f27e 65bd 1cb1 993c
00000140: 0422 debc 18ba 19bd f0f9 fb3c 20c0 2f3c
00000150: 5c69 a13c 8026 d13c 9029 733d 48ac ac3c
00000160: e057 54bc e8c1 263c 1034 b13c 94d3 933c
00000170: fcef 723d a8a2 3c3d f20f 2b3d 12f5 4d3d
00000180: 64f5 d6bc 5ac5 573d f2cf 6fbd 8c46 ecbc
00000190: c8df 3b3d a85b bc3c cca5 c83c 442c 8c3c
000001a0: 3006 f3bc 8cfc 8dbc 6c7d 77bd 9022 67bc
000001b0: 708b c13b b4b0 473d 706c 0bbc 889a 503c
000001c0: 4a01 103d 2023 38bb e0f8 e73b f6d6 43bd
000001d0: ea43 703d 8c4e 1c3d 9ca1 d9bc c061 1dbd
000001e0: a6c3 273d 58cf 2ebc d0fe 3dbc 00fb a0b9
000001f0: 54cd 0a3d d6cd 6b3d 3c67 1a3d 3c0a a4bc
00000200: 6ca8 093d a86d 6fbd e070 74bc 30bf 763c
00000210: 4aaa 0cbd d024 15bd 8038 eabc 4af9 06bd
00000220: 40ed 3c3b d831 d6bc b8d5 68bd e41d 5abd
00000230: 8438 ffbc 2409 f9bc 80ab d83a 304e 453d
00000240: 92c0 1dbd 2e3f 293d 2010 fd3c 384f c23c
00000250: 8066 ca3c 4094 1c3c 1226 47bd 9842 79bd
00000260: f0c7 48bd a408 16bd 6274 52bd 0415 01bd
00000270: 9a0e 2bbd 5843 1fbd 0674 19bd 9866 4ebd
00000280: d40e 413d 0082 9bba 9653 3cbd 4621 78bd
00000290: b2e1 103d f219 2dbd 409e acbc a239 1d3d
000002a0: 60ff 053c 2ce3 fd3c f81d 6b3c 0e2c 433d
000002b0: b0ba f53b 349a 89bc 589e 633d 2ef2 6fbd
000002c0: 6869 3bbd 42fc 1bbd 06c8 39bd 38c2 1c3d
000002d0: 92d8 73bd 441b f6bc 222d 0a3d c6b8 503d
000002e0: 32b0 413d 0895 eebc d09c 453c 2c84 94bc
000002f0: 8095 5dbc eae4 613d 8062 233c 4893 fa3c
00000300: fcd6 55bd a444 afbc b060 d13b 446d 2abd
00000310: 880b c0bc 00ee 593a 9e07 723d 40d9 adbb
00000320: 20fa 8bbb e095 8cbc 94ba 293d c817 4bbd
00000330: 88ea 45bc def6 00bd f005 5dbd e014 a73c
00000340: d0cf 3bbd 824f 333d 60dc 5c3d 38c8 c63c
00000350: 78aa 2cbd b6ef 28bd 5295 67bd a0e8 533c
00000360: b0f4 443c f47c af3c b8ff 863c 4cce 63bd
00000370: d458 3bbd 7855 e73c 4089 1a3b 5881 3cbc
00000380: 1aef 463d b860 553c 7824 243d 3c08 d23c
00000390: 56ae 6b3d c6c6 6cbd b8b1 4f3c 24b7 e4bc
000003a0: 606c 9a3c f8b5 70bd 320f 69bd 00eb 5b3a
000003b0: ca17 0c3d 408c ba3c 4c56 5e3d a809 183d
000003c0: 62b6 1b3d ac7e 533d 784c 65bd b8fd e93c
000003d0: 10fc 473d fcec 1fbd c8b2 003d 10ef 073d
000003e0: 004d db3b 4c12 65bd ecca 353d fae8 3b3d
000003f0: 0801 47bc 347e 6b3d 06f5 203d 9ee0 39bd
-0.05771534 -0.007927187 0.05127167 -0.045733087 -0.007443711 0.01705233 0.05233968 -0.041647136
0.0316858 -0.002437584 -0.05202706 0.022959664 0.022020184 -0.01562868 0.044479884 0.015125096
-0.058315113 0.026877277 0.0354532 -0.027240664 -0.038291357 0.05815412 -0.021853484 -0.0338784
0.021807544 -0.0069726184 -0.04466757 0.042743504 -0.016572013 -0.025591657 0.037633285 0.016867429
-0.026842251 0.03720437 0.0030139983 -0.029591054 0.024406374 0.0046504214 0.041851543 0.062184334
0.013227485 -0.01574672 0.033273913 -0.005667627 0.00799451 0.027124405 0.029582173 0.05766718
0.005648114 0.04340736 -0.01438576 -0.005946219 -0.017114937 -0.0447834 0.061502814 -0.035459563
-0.004861556 -0.0025156215 0.0014829934 0.03917723 0.025489397 -0.0141202435 -0.031412072 0.016981423
0.048804052 0.041168362 -0.039753646 0.056339152 0.06164053 -0.05040334 -0.04291971 0.045374922
-0.004844956 0.060192578 0.013896421 -0.0028148443 -0.05166643 0.06213867 -0.056029268 0.01876121
-0.02711583 -0.03753099 0.030758828 0.0107269585 0.01970356 0.025531054 0.05936581 0.021078244
-0.012960404 0.010178067 0.02163127 0.018045224 0.0593109 0.04605356 0.041763254 0.050282545
-0.026240058 0.052678443 -0.05854792 -0.028842233 0.04586771 0.022992924 0.02449312 0.017110951
-0.029666036 -0.017332338 -0.060422346 -0.014107361 0.005906515 0.0487525 -0.00850974 0.012732156
0.03515748 -0.0028097108 0.0070792288 -0.047812425 0.058658518 0.038160846 -0.02656632 -0.0384233
0.04095807 -0.010669552 -0.011596397 -0.00030704588 0.033887222 0.057569347 0.03769611 -0.020024411
0.033607885 -0.058454186 -0.01491949 0.015060231 -0.034342088 -0.03641206 -0.028591394 -0.032952584
0.0028827935 -0.026146814 -0.056844443 -0.053251162 -0.031154878 -0.030399866 0.0016530603 0.04817027
-0.038513727 0.04132002 0.030891478 0.023719415 0.024707079 0.00955683 -0.04862029 -0.060854524
-0.0490188 -0.036629334 -0.051380523 -0.031514183 -0.041761972 -0.038882583 -0.037464164 -0.05039081
0.04713328 -0.0011864305 -0.04597815 -0.060578607 0.03537149 -0.04226107 -0.021071553 0.03838504
0.008178562 0.030992113 0.014350407 0.047649436 0.0074990615 -0.016797163 0.05557093 -0.05858057
-0.04575482 -0.03808237 -0.045356773 0.03827116 -0.05953271 -0.030042298 0.03373445 0.050957464
0.047287174 -0.029123798 0.012061313 -0.01812943 -0.013524413 0.05514995 0.009972215 0.030587807
-0.05220698 -0.021395035 0.0063897 -0.04160811 -0.023442999 0.0008313358 0.059089296 -0.0053054392
-0.0042717606 -0.01716131 0.0414377 -0.049583226 -0.012079842 -0.03148543 -0.05396074 0.020395696
-0.045852482 0.043776996 0.053921103 0.024265394 -0.04215476 -0.04124423 -0.056538887 0.01293388
0.012021229 0.021421887 0.016479358 -0.055616662 -0.04573901 0.028238997 0.0023580343 -0.011505447
0.04856787 0.013023548 0.04007384 0.025638692 0.057539307 -0.057806753 0.012676649 -0.02791936
0.018850505 -0.05876729 -0.056899257 0.0008389205 0.034202375 0.022771955 0.054281518 0.037118584
0.03801573 0.051634476 -0.05598113 0.028563365 0.04882437 -0.039044365 0.0314205 0.033186972
0.0066925287 -0.055925652 0.044382975 0.04587648 -0.012146242 0.057493404 0.039296173 -0.045380227

main_model.hiddenlayer_0.bias f4 [256]
00000000: e2a5 553d e4e7 cfbc e421 42bd a8ec 383c
00000010: aaae 553d aa5b 343d a880 0f3d e86e 33bc
00000020: c059 15bd 60ff 2a3c dca8 fc3c c8fa 1cbc
00000030: 08b9 af3c 48ac 57bc a88d 8a3c 0080 ce37
00000040: accb 4cbd 20c6 4a3b e65c 72bd a80b 39bd
00000050: 1834 4d3d b019 e23b 8814 6d3d 689a e93c
00000060: 7e81 343d 045d ed3c 045d 76bd 0064 e23b
00000070: c06c 1dbb cc67 89bc 7c4d 94bc f8e9 213c
00000080: 62f8 2bbd 384b e23c 60fa e3bb 3081 a13c
00000090: a09a 473d 5cfa 6cbd 3ace 093d 90ca de3b
000000a0: d0d3 4c3c f4d7 2c3d 4a80 1cbd 5c55 bc3c
000000b0: 0038 743b aa2f 593d 6c47 e53c ea33 52bd
000000c0: c6d6 393d a003 a63c 260b 38bd b2aa 263d
000000d0: 6273 223d 1cc6 53bd 2c5a bb3c c071 66bc
000000e0: 3e27 6e3d 1049 573d a8b6 063c c4b3 8bbc
000000f0: b81f 0ebd 3e8d 2f3d f040 b5bb 8cfd d9bc
00000100: 3086 aabb 2808 4bbc c84a 3ebc 68fd 50bd
00000110: b60d 0e3d 40ce d23c 006d 673a e8ab 7a3d
00000120: c6b1 59bd 1853 aebc 70a0 17bc a048 b53c
00000130: ac8d 7b3d d0bb 9bbc 90e3 ee3b e06d 6f3b
00000140: 22c6 46bd 80e4 103b 1009 623c 280c 673d
00000150: 387b 9e3c 6087 c3bc 5023 aa3c 2e62 173d
00000160: 9099 23bc a6bc 0cbd 2638 71bd 3046 f53c
00000170: d224 113d 8079 433c 4af9 5a3d 4801 60bd
00000180: 80f3 e3bc 4886 2f3c 5ac7 1cbd e8f6 a8bc
00000190: 58c1 9a3c 2037 a33c ac77 b43c 00c4 373a
000001a0: e083 77bb 403f 6c3c e05b fabc d05f 133c
000001b0: 2c36 583d 1e82 0bbd e433 253d 6810 c9bc
000001c0: 984d b43c 80c9 e5bc d037 133d b414 5f3d
000001d0: c699 33bd 7456 a83c 08fc c93c 3c50 113d
000001e0: 408a 353d f67d 3abd 0ec4 38bd 9899 2c3d
000001f0: 10ea d63c a83f 2f3d 9242 0b3d 502a fcbb
00000200: 2c80 c23c ec0e 69bd a87e 8c3c f680 363d
00000210: ac27 323d 2cfb 4bbd d485 f9bc 52c5 493d
00000220: e6a7 56bd d671 193d 7c14 d3bc 3ece 5ebd
00000230: 804d d2bc 901d 613c 0010 e0bb 5807 693c
00000240: 2c32 7dbd e8ce 09bd 00d7 0dba 56ce 363d
00000250: 98dc f5bc 34df ca3c fc6b d2bc 74ee 2fbd
00000260: d0e1 de3b 8241 6bbd fe5b 4bbd 5c4e 19bd
00000270: f874 cabc c09c 923b cc5d bfbc bcc6 0b3d
00000280: a48f 9f3c 1611 723d 5cb2 653d b644 5f3d
00000290: 6075 b2bb 626b 1dbd 1ee4 1c3d 640c 6b3d
000002a0: ec8c 8abc 284f 013d 0cd0 cebc b03a 63bd
000002b0: 4092 e9bc 4067 68bb 1436 523d c0ed 9e3b
000002c0: a046 4dbd 2c42 43bd 08fd bd3c 284f e63c
000002d0: 5822 61bc 887d 5d3d 600d 3abc 8c8a 9abc
000002e0: 28c0 3fbc b444 233d 1602 083d 74f9 863c
000002f0: 52e9 2c3d c68a 223d 0ee0 1a3d a030 cbbc
00000300: 62b6 14bd 5451 eb3c 0009 9dbc c07e d1ba
00000310: 485b e0bc 5821 c23c 5209 7ebd 58e8 f13c
00000320: c0b4 37bd 80ea ac3b d4cd c1bc 7a8d 353d
00000330: 60b5 6abd 649a 1b3d 5ca7 34bd 944c dcbc
00000340: b056 e03b 7c0e 7d3d e658 3fbd 68a4 e8bc
00000350: e410 aabc f01c 613d 1c87 e73c 5823 6d3c
00000360: e8e5 0ebd 2896 1ebd da47 413d ccd1 12bd
00000370: 2cdc cf3c e054 08bc a80f 98bc c863 3bbc
00000380: c84a 053d fad6 78bd aea7 353d c851 41bd
00000390: c0b0 c63a a688 113d 54df 40bd 9420 2cbd
000003a0: 4ecc 583d 40d5 ad3a 34c0 c83c 28d5 66bc
000003b0: 2e32 243d 40c5 15bd 94c7 35bd 90af b03b
000003c0: 14b7 26bd 64a7 6cbd 4c97 983c 66e1 3abd
000003d0: f05c 2abc 4e18 12bd ca73 463d a4cf ecbc
000003e0: fc5d 1dbd 68c4 933c 4601 64bd 2a7e 133d
000003f0: d0de 343c 5a2f 23bd c451 733d 52b3 71bd
0.05216015 -0.025379129 -0.047395602 0.011286892 0.052168526 0.04403273 0.035034806 -0.010951735
-0.036462545 0.010436863 0.030842237 -0.009581275 0.021450534 -0.013163634 0.01691325 2.4616718e-05
-0.049998924 0.0030940846 -0.059170626 -0.045177132 0.05009851 0.006900035 0.05788091 0.02851601
0.044068806 0.028975017 -0.0601473 0.0069088936 -0.002402112 -0.016773127 -0.018103354 0.009882443
-0.041984923 0.027623758 -0.0069573373 0.019714922 0.048731446 -0.05785595 0.03364394 0.0067990497
0.012501672 0.042198136 -0.038208283 0.022989921 0.0037264824 0.05302397 0.027988158 -0.05131904
0.04537084 0.0202654 -0.044932507 0.04069013 0.03966082 -0.051702604 0.022870146 -0.014065206
0.058142893 0.052559912 0.00822226 -0.017053492 -0.034698218 0.04285931 -0.005531423 -0.026610158
-0.0052039847 -0.012392081 -0.011614509 -0.051022917 0.034681045 0.025733113 0.0008828193 0.0611991
-0.053148054 -0.021279857 -0.00925456 0.022129357 0.061414406 -0.019010454 0.007290311 0.0036533996
-0.048528798 0.0022108853 0.013796106 0.056408077 0.019345865 -0.023868263 0.020768791 0.036958866
-0.009985343 -0.034359597 -0.058891438 0.029940695 0.035435505 0.011930823 0.053460397 -0.054688722
-0.02782607 0.0107131675 -0.038276054 -0.020625547 0.018891022 0.019923747 0.02202972 0.0007010102
-0.0037767813 0.014419377 -0.030561388 0.008995011 0.052786037 -0.034059636 0.04033269 -0.024543956
0.022009656 -0.028050184 0.0359419 0.054463103 -0.04384782 0.020549037 0.02465631 0.035476908
0.0443213 -0.045530282 -0.045108847 0.042138666 0.026234657 0.042785317 0.033999033 -0.0076954737
0.023742758 -0.056898996 0.017150238 0.04455658 0.043494865 -0.049800083 -0.030459322 0.049260445
-0.052406214 0.037462078 -0.025766604 -0.054395907 -0.02567172 0.013739958 -0.006837845 0.014222942
-0.061815426 -0.033644587 -0.00054107606 0.04463037 -0.030012414 0.024764635 -0.025686257 -0.042952016
0.0068018213 -0.05743552 -0.049648277 -0.037428245 -0.024713978 0.0044742525 -0.023360156 0.034125075
0.019477673 0.059098326 0.0560783 0.054508887 -0.005446121 -0.038432486 0.038303487 0.057384863
-0.0169129 0.03156963 -0.025245689 -0.05547589 -0.02851212 -0.0035461932 0.051321104 0.0048501194
-0.05011618 -0.04767053 0.023191944 0.028113917 -0.013741098 0.054074794 -0.011355728 -0.018864892
-0.011703528 0.039860442 0.033205114 0.01647637 0.0422147 0.039683126 0.03781133 -0.02480346
-0.036306746 0.028725304 -0.01916933 -0.0015983209 -0.027387276 0.02369754 -0.062020607 0.029529735
-0.04485011 0.005276978 -0.023657717 0.044324376 -0.05730188 0.037989035 -0.04410492 -0.026891984
0.0068462715 0.06178139 -0.04671564 -0.028398708 -0.020760007 0.054959238 0.028262667 0.014473759
-0.034887224 -0.03871742 0.047187664 -0.03584461 0.02537354 -0.008321017 -0.018562153 -0.011437364
0.03254202 -0.060751893 0.044349365 -0.047197133 0.0015158877 0.03553071 -0.047087982 -0.042023256
0.052929215 0.0013262406 0.024505712 -0.014088906 0.040086918 -0.036565065 -0.044379786 0.0053920224
-0.04070194 -0.057776824 0.018626831 -0.045625113 -0.010398135 -0.03566771 0.04845027 -0.028907605
-0.03841971 0.01803799 -0.055665277 0.03600899 0.011039451 -0.03984008 0.05940415 -0.059008904

main_model.OutputLayer.weight f4 [3, 256]
00000000: b07e 903b 0004 fa38 8c2a a8bc de01 22bd
00000010: 8014 423b c87d 62bd 9ccc 15bd dacf 0abd
00000020: 28a3 c83c 20d8 383b 7016 e53c 9017 db3c
00000030: 00b4 763d c899 43bc c818 44bd a612 393d
00000040: 1a5d 743d b21f 08bd 208b 053b 724f 06bd
00000050: 2028 933b 0c4f d33c 4ec1 1b3d d4ea 103d
00000060: 9ad0 70bd 62cd 053d 68f4 033d f033 debc
00000070: 50c1 bb3c 50d7 b63c b891 5bbc f86e d63c
00000080: a047 eebc e88d 5ebc 64f9 18bd e022 9fbc
00000090: a408 48bd a082 713d 507b 8abc 4819 a0bc
000000a0: 72d4 0ebd 54a2 d73c 8ccf 09bd 3613 6abd
000000b0: 7c9b 5e3d 3630 0f3d 3856 06bc 1c94 293d
000000c0: 4443 5a3d acc5 debc 5eb9 493d d411 92bc
000000d0: 7484 cfbc dc2d b33c 1819 563d a474 a33c
000000e0: b48a abbc 7c8d 34bd 4e63 14bd 86e7 393d
000000f0: f0ae 3dbc 0e54 7e3d 2c7d 8d3c 4ecf 5fbd
00000100: e490 d73c 1023 1abc de6a 5abd 7856 1e3c
00000110: 6c4f 523d eca6 173d ec79 c13c c8d0 233c
00000120: c879 4e3c e210 1d3d 00c6 9dba 6c78 f13c
00000130: b8a9 c3bc c8a2 013c dc80 10bd 28f3 fc3c
00000140: 70ef a0bb 402d c13c c439 cd3c 346d 6dbd
00000150: 303f bb3b 003d 0dba 569b 5abd 5006 f5bc
00000160: 048e 04bd 4003 79bb a426 2a3d 808c 58bc
00000170: 8030 f2ba 026d 3b3d 3024 bfbc 887a 6d3c
00000180: 9e0a 523d 14bd 693d a447 2abd 34ab 5bbd
00000190: 60d7 63bd f016 de3b 9ad8 663d e888 4ebd
000001a0: 50a7 ae3b c08c fdba 6c1f 2a3d 9486 2e3d
000001b0: fae8 1abd 8097 0ebb 3cda cdbc 001f 073c
000001c0: 6404 c4bc c018 39bc 7ec0 333d d21b 32bd
000001d0: 806d 41bc 4089 2c3b 1cfb c8bc fcfa 90bc
000001e0: e6a3 1abd da1f 0b3d b475 51bd 60d0 76bb
000001f0: a03d cc3c 3085 313c 705e c23b a623 163d
00000200: 60f5 b53c 4c6f 53bd be42 05bd 2099 03bc
00000210: b03d 383c 08e2 02bd c005 93ba e492 46bd
00000220: 1e5a 6dbd 00f9 533b 30ba 08bc 8816 293d
00000230: b002 3fbc d602 3f3d 9c7d 1fbd 609d 16bc
00000240: a03f 27bd 2831 cfbc 82e3 6b3d 80c3 4f3a
00000250: 2479 56bd ec04 8c3c b88b 603d 905e 72bd
00000260: 2497 d93c 36e8 383d c87d 35bc e88d 35bc
00000270: 1837 19bc 303e 473c c810 60bc d875 393c
00000280: 7051 aa3c 98b0 28bd 9078 e7bc 404d 7fbb
00000290: 72b5 103d ac6c e93c da2e 563d 02bc 673d
000002a0: 28ac 443c 1eb5 56bd f8f8 0fbd 3899 783d
000002b0: 602e dbbb 400f b83a 7e68 693d 0019 083a
000002c0: f2f1 423d 1209 3fbd 70e1 b73c d404 63bd
000002d0: 40ff b6bb 6c5e af3c e06a 113d d836 e43c
000002e0: 10e0 443d 2027 673c 644d 7cbd ea45 54bd
000002f0: 1064 0fbd a464 e63c b054 123c 64f5 00bd
00000300: c2dd 4dbd a060 00bc ee9d 47bd 0017 acbb
00000310: 6443 923c 82aa 50bd aca0 f6bc d016 8e3c
00000320: 8e82 3ebd 484b 9fbc 30d2 5bbc 9098 a93c
00000330: 4a6b 143d 8e36 393d 607f 03bb f28b 43bd
00000340: a880 1abc d051 f73c a8cd 50bd 76b4 4e3d
00000350: 4218 79bd d87a 4e3c 4497 863c f412 29bd
00000360: d8b7 cebc 4436 27bd a0b8 c53c 76fa 093d
00000370: b24e 603d 101e cf3c bc7b 513d ee8b 15bd
00000380: 26be 563d bcb2 363d 0063 d83c ce4d 493d
00000390: b058 9b3c 3a22 093d 0099 503d 3e66 71bd
000003a0: 1437 283d 8085 a63b a8ad 4fbc 94e5 853c
000003b0: 80c7 5e3c 0073 89ba 0433 02bd 001d 393d
000003c0: 4035 9b3b 60e6 0c3d 64a2 18bd 3606 723d
000003d0: b0e5 213c 202e 1e3c d8ac 0e3d 840a bdbc
000003e0: 80a0 7cba e0e1 61bd 3add 1d3d 3410 24bd
000003f0: 84ae 18bd 1499 563d 80e2 c0bc 1041 e1bc
0.0044096336 0.00011921674 -0.0205281 -0.039552562 0.002961427 -0.055295736 -0.036572084 -0.03388963
0.024491861 0.0028204992 0.0279648 0.026744634 0.060230255 -0.01193852 -0.047875196 0.0451838
0.0596591 -0.033233352 0.0020377114 -0.03279061 0.0044908673 0.025794528 0.038026147 0.0353802
-0.058792688 0.03266657 0.032215506 -0.027124375 0.022919327 0.022319466 -0.013401441 0.02617596
-0.029086888 -0.013583638 -0.037347212 -0.01942581 -0.048836365 0.058962464 -0.016904503 -0.019543305
-0.034870572 0.026322521 -0.033645198 -0.057147227 0.0543475 0.034958087 -0.008199267 0.041401014
0.053286806 -0.027193867 0.049249046 -0.017830767 -0.025331713 0.021872453 0.052270025 0.01995308
-0.020940162 -0.044080243 -0.036227517 0.045386814 -0.011577353 0.06209188 0.0172716 -0.05464106
0.026314206 -0.009407774 -0.053324573 0.00966417 0.051345274 0.037024423 0.023617707 0.009998508
0.012602277 0.03834618 -0.0012037158 0.029476367 -0.02388464 0.007912345 -0.03527914 0.030877665
-0.0049113557 0.023581147 0.025051959 -0.057965472 0.0057143196 -0.0005387813 -0.053370796 -0.029910237
-0.032362 -0.0037996322 0.041540757 -0.013217092 -0.0018477589 0.045758255 -0.023332685 0.014494546
0.051279657 0.057065085 -0.041572228 -0.05363007 -0.05562532 0.0067776367 0.05635891 -0.050423533
0.005330004 -0.0019344315 0.041533872 0.042608812 -0.03781984 -0.0021757782 -0.025128476 0.008247137
-0.023927875 -0.011297405 0.043884747 -0.043483563 -0.011805892 0.0026326925 -0.0245338 -0.017697804
-0.037753962 0.033965923 -0.05113764 -0.0037660822 0.024931729 0.010834977 0.005931668 0.03665509
0.02221173 -0.051619813 -0.032534353 -0.008032113 0.011245176 -0.03195384 -0.0011216924 -0.04847993
-0.05794727 0.003234446 -0.008345172 0.041281253 -0.011658356 0.046633564 -0.03893815 -0.009192795
-0.040832162 -0.025291994 0.057590015 0.0007925555 -0.052361622 0.01709219 0.054820746 -0.059172213
0.026561327 0.04514333 -0.011077352 -0.011081196 -0.009351514 0.012160823 -0.013675876 0.0113196
0.020790786 -0.041184038 -0.02825573 -0.0038955957 0.03532929 0.028494202 0.052290775 0.056575783
0.012003936 -0.05241882 -0.035149544 0.060692996 -0.006688878 0.0014042631 0.056984417 0.00051917136
0.04759402 -0.04663951 0.022446364 -0.055424526 -0.0055846274 0.021407329 0.035502315 0.027858183
0.048065245 0.014108449 -0.061597243 -0.051824488 -0.035007536 0.028124161 0.008931324 -0.031484023
-0.050260313 -0.007835537 -0.048734598 -0.0052517653 0.0178544 -0.05094386 -0.030105911 0.017344862
-0.046511225 -0.019445077 -0.013416812 0.02070263 0.03623513 0.045218043 -0.0020064935 -0.047740884
-0.009430088 0.030190378 -0.05097738 0.05046507 -0.06081415 0.01260253 0.016429551 -0.04127784
-0.025234148 -0.040823236 0.024135888 0.033686124 0.05476255 0.02528289 0.051143393 -0.0365104
0.052427433 0.044604048 0.026414394 0.049146466 0.018963188 0.033479907 0.050927162 -0.058935396
0.04106815 0.0050818324 -0.01267568 0.016344823 0.013597369 -0.0010486543 -0.031786934 0.045193672
0.0047365725 0.03439939 -0.037264243 0.059087954 0.009881422 0.009654552 0.034832805 -0.023076303
-0.00096369535 -0.05514705 0.038541056 -0.040054515 -0.037275806 0.05239208 -0.023545504 -0.027496845

main_model.OutputLayer.bias f4 [3]
00000000: d8a8 c1bc 4ce8 cc3c d854 863c
-0.023640081 0.025013112 0.016397879
