DQN_first/11/save/main_model_000001.pth (torch_old, 274770 bytes, 6 tensors)

main_model.InputLayer.weight f4 [256, 6]
0.19510424 0.21631306 0.09241396 -0.26216367 -0.38655457 -0.30932862 -0.3910284 -0.18246418
0.20206928 -0.40043598 -0.36192843 0.0061766207 -0.21702057 -0.08313236 0.21300513 -0.37719873
-0.069743305 0.3488204 -0.25362295 -0.060159743 -0.040265173 0.4068436 -0.06618488 -0.24059796
-0.30661488 -0.3079859 -0.30451107 0.36628723 0.3395561 -0.24324268 -0.2425718 -0.38046977
-0.025882214 -0.13513744 -0.33581975 0.30324733 -0.1481139 0.061276704 0.37667912 -0.075852275
-0.20382407 -0.2646308 0.21480417 0.07611975 0.35031474 0.27181995 -0.0044907033 0.26670808
-0.14645907 0.30117208 0.22196949 0.20165718 -0.099734634 0.23787868 -0.27700984 0.07038543
0.40442127 0.19658536 0.3852622 0.07008466 0.20951205 -0.14982098 -0.39077505 -0.24437483
-0.29910013 0.089473665 0.25858706 -0.18787162 0.23659253 0.16871661 -0.22286926 -0.04049489
-0.25299656 0.06840086 -0.30520356 0.3035664 0.1778673 -0.3161384 0.18005538 0.030294657
-0.13191411 -0.11777285 -0.25037152 -0.0853897 0.21439993 0.25323033 -0.24598856 0.010270923
0.3780508 0.19342929 -0.0037733912 0.11414826 0.13678128 0.29705608 -0.2265757 0.08502239
0.15663278 0.35609156 0.13012552 0.23777378 -0.25125468 0.2536584 0.12770742 -0.4023453
-0.14222956 0.21834576 0.050908744 -0.2666546 -0.057816714 0.31491214 -0.3744704 -0.090204746
0.19361293 0.010532945 0.39639038 -0.29151687 0.28086114 -0.12745178 0.03661272 0.28839695
0.09793472 -0.34476328 -0.30717075 -0.3943995 0.010120451 -0.12125382 0.33589143 0.29586333
0.017002493 0.2182303 0.046028405 -0.22706996 0.18150336 -0.28141108 0.09137121 0.04538086
-0.15865839 -0.26694092 -0.15217522 0.25072706 -0.040703356 -0.1358923 0.28615355 -0.11612028
-0.11421272 0.35757738 0.06191638 0.20484644 0.40771383 -0.28150135 -0.039403856 -0.26069018
-0.18983343 -0.12036097 0.17131555 0.37549382 0.2533025 0.22566783 -0.045787215 0.08074227
-0.39245057 0.40483987 -0.021272331 0.21073383 0.21703309 -0.3851438 0.25609666 -0.23139596
-0.31885737 0.34093428 -0.23133922 -0.22028938 0.19352204 0.22145748 0.15070528 0.23486829
0.25123292 0.15439415 -0.06516343 0.00639081 -0.015441209 0.39174414 0.010028422 0.12146783
-0.035614222 -0.008455247 -0.03752604 -0.18198977 0.18347234 -0.29795712 0.29653388 0.15345556
0.019029677 -0.073696434 0.16055197 0.0364016 -0.34241056 0.07024565 0.18426418 0.40245152
0.1252414 0.3222078 -0.031101942 -0.32628143 0.31333113 0.046843827 0.15339577 0.15636152
-0.07099673 -0.0064664185 0.09993976 0.18588173 0.22209251 -0.3845899 0.18244934 0.0037493408
-0.20098853 -0.31628847 0.1926924 -0.20837341 -0.21847147 -0.28571856 0.055096477 -0.14918974
-0.09557438 0.23869157 -0.10840562 0.14992332 0.3782611 -0.19279638 -0.38857734 0.32417834
-0.34137568 -0.24404423 0.22954804 0.34083408 0.33180654 0.36928052 -0.2933324 0.11884433
-0.22447912 0.17874032 0.20182091 0.40002823 0.07526043 -0.0031144917 -0.17962791 -0.24711332
0.12248939 0.036430508 0.00028595328 0.18787408 -0.18859568 0.03278753 -0.28444815 0.06450611
00000000: 68c9 473e 2c81 5d3e 8843 bd3d 513a 86be
00000010: 7bea c5be 5260 9ebe e034 c8be e4d7 3abe
00000020: 40eb 4e3e f205 cdbe af4e b9be 4065 ca3b
00000030: a43a 5ebe 4c41 aabd 041e 5a3e 3120 c1be
00000040: 94d5 8ebd 9698 b23e deda 81be 106a 76bd
00000050: 18ed 24bd ce4d d03e f08b 87bd 505f 76be
00000060: a0fc 9cbe 54b0 9dbe e0e8 9bbe 008a bb3e
00000070: 4cda ad3e 9c14 79be be64 78be efcc c2be
00000080: f006 d4bc 7861 0abe 91f0 abbe 3c43 9b3e
00000090: 2cab 17be 48fd 7a3d 16dc c03e 7058 9bbd
000000a0: 42b7 50be b07d 87be a0f5 5b3e ace4 9b3d
000000b0: 745c b33e fc2b 8b3e c026 93bb f68d 883e
000000c0: 5ef9 15be 3a33 9a3e f84b 633e 387f 4e3e
000000d0: ac41 ccbd 7896 733e 3cd4 8dbe 3c26 903d
000000e0: 4e10 cf3e ac4d 493e 1641 c53e 8c88 8f3d
000000f0: 548a 563e ac6a 19be ab13 c8be 653d 7abe
00000100: a723 99be f83d b73d 8665 843e 6b61 40be
00000110: 5045 723e 0cc4 2c3e d737 64be f8dd 25bd
00000120: c488 81be c015 8c3d a443 9cbe 0e6d 9b3e
00000130: d822 363e e4dc a1be 7060 383e 802c f83c
00000140: 7e14 07be e432 f1bd b230 80be cce0 aebd
00000150: a88b 5b3e 68a7 813e 6de4 7bbe 6047 283c
00000160: e08f c13e 5412 463e 004b 77bb 90c6 e93d
00000170: 6410 0c3e bc17 983e 7603 68be 3820 ae3d
00000180: 5864 203e a251 b63e a03f 053e f87a 733e
00000190: 74a4 80be 84df 813e bcc5 023e 3400 cebe
000001a0: a0a4 11be 0896 5f3e b085 503d f486 88be
000001b0: 38d1 6cbd 2a3c a13e 96ba bfbe 44bd b8bd
000001c0: 7842 463e 6092 2c3c aef3 ca3e b341 95be
000001d0: 08cd 8f3e b882 02be 38f7 153d c4a8 933e
000001e0: 0092 c83d d084 b0be 7c45 9dbe bbee c9be
000001f0: 40d0 253c ec53 f8bd f6f9 ab3e 667b 973e
00000200: d048 8b3c c477 5f3e 4888 3c3d 0785 68be
00000210: 04dc 393e 1d15 90be d420 bb3d 48e1 393d
00000220: 5877 22be 7bac 88be d2d3 1bbe 4c5f 803e
00000230: 90b8 26bd 5a27 0bbe b882 923e 78d0 edbd
00000240: 5ce8 e9bd 6214 b73e 089c 7d3d 44c3 513e
00000250: debf d03e f220 90be f065 21bd 2f79 85be
00000260: b263 42be d07f f6bd 586d 2f3e ba40 c03e
00000270: deb0 813e 7815 673e 608b 3bbd 345c a53d
00000280: 48ef c8be 2c47 cf3e 5043 aebc 9cca 573e
00000290: ec3d 5e3e 9131 c5be 1a1f 833e 10f3 6cbe
000002a0: 4641 a3be f08e ae3e 30e4 6cbe 8a93 61be
000002b0: a42a 463e c0c5 623e 7c52 1a3e 5081 703e
000002c0: 9aa1 803e 8019 1e3e 6874 85bd 006a d13b
000002d0: 20fd 7cbc b092 c83e 404e 243c 20c4 f83d
000002e0: 38e0 11bd e087 0abc e8b4 19bd 875b 3abe
000002f0: 2ce0 3b3e d68d 98be 4ad3 973e 7423 1d3e
00000300: 20e4 9b3c 28ee 96bd bc67 243e d819 153d
00000310: 7050 afbe f4dc 8f3d c0af 3c3e 200e ce3e
00000320: 483f 003e 6cf8 a43e 80c9 febc 5c0e a7be
00000330: f06c a03e 50df 3f3d c813 1d3e 3c1d 203e
00000340: bc66 91bd 40e4 d3bb 38ad cc3d c857 3e3e
00000350: 386c 633e f8e8 c4be 00d4 3a3e 80b7 753b
00000360: f0cf 4dbe 90f0 a1be 2851 453e d75f 55be
00000370: fcb6 5fbe b449 92be d8ac 613d 32c5 18be
00000380: 80bc c3bd 906b 743e c403 debd 8085 193e
00000390: 70ab c13e 6a6c 45be 9cf3 c6be b4fa a53e
000003a0: cbc8 aebe bbe6 79be a40e 6b3e ce81 ae3e
000003b0: 8ce2 a93e 5612 bd3e aa2f 96be a864 f33d
000003c0: dbdd 65be b407 373e 24aa 4e3e 80d0 cc3e
000003d0: 2422 9a3d 801c 4cbb 61f0 37be 460b 7dbe
000003e0: b8db fa3d 2838 153d 00ec 9539 1062 403e
000003f0: 3a1f 41be 384c 063d 30a3 91be c81b 843d

main_model.InputLayer.bias f4 [256]
-0.11563137 -0.18682265 -0.037344128 0.020071536 -0.021257639 -0.02698335 -0.017546386 0.0054909885
-0.2118188 -0.17999648 0.35773277 0.39998263 0.19984174 0.058230877 -0.1251005 0.070414215
0.31399035 0.22878826 -0.22432436 -0.32629368 -0.03820786 -0.27408773 0.22633725 0.17715293
-0.38262084 -0.04135114 0.1809395 -0.2857916 -0.093765855 -0.013759524 -0.34950095 -0.10802081
-0.40198103 -0.24287048 0.18403727 -0.36703175 0.37045616 -0.022196054 0.27756763 0.04048091
-0.03194073 -0.35241354 -0.17243557 -0.15439817 0.21338904 -0.083815604 -0.30830586 0.062349945
-0.114834964 -0.24706177 0.31200677 0.36491716 -0.10701269 -0.40445003 -0.09630111 0.0016104281
-0.19932851 0.34111297 0.2740093 0.22448063 0.049585134 0.24916524 -0.117040426 0.13196707
-0.22912765 -0.3182717 0.10797715 -0.23788634 0.31928998 0.1307981 -0.031454504 -0.382626
-0.18082805 -0.1777176 0.3864498 -0.3532986 0.10267645 0.3290767 0.18768507 -0.08815807
-0.20963228 0.018613428 -0.018433243 -0.22113238 0.10919362 0.039514273 -0.20217231 -0.17057332
0.4077304 0.05869046 -0.16160712 0.26404178 -0.00953123 0.33676076 0.21699625 0.3510359
0.2236135 0.08867082 0.35934144 0.17520815 0.07428193 -0.37915173 0.130324 -0.3038332
0.3533035 -0.3749449 -0.09791666 0.31027955 -0.38243017 -0.21149267 -0.20245634 0.057678163
-0.14326215 -0.3900637 -0.35073408 -0.032054722 -0.34760198 -0.119047195 0.19678438 -0.13361701
0.095403016 0.2139486 -0.1796246 -0.27574828 0.1001541 -0.010413408 -0.34317756 0.21875131
-0.02622065 -0.07344058 -0.19303742 0.32565773 -0.37902817 -0.38949823 -0.2074138 -0.05620697
-0.39830744 0.23488414 0.31617934 -0.12588134 -0.017448246 -0.32421565 0.25723344 -0.20621352
0.09183192 0.08911458 0.15058076 -0.07279366 -0.027174383 -0.032155782 -0.3452081 0.20005685
-0.29548985 -0.30268195 0.12421894 -0.060974568 -0.21986744 -0.34228608 -0.33701658 -0.19587412
-0.041839063 0.26664865 -0.1517213 0.17839587 0.064682335 -0.13724613 0.18260103 0.1586687
0.051140785 0.40647537 -0.08563912 0.37572753 0.27655274 -0.15831922 -0.36198702 -0.35353357
-0.25563067 0.32838643 0.40644187 -0.36298814 -0.3412856 -0.35160503 0.11740649 0.25507033
-0.10228771 -0.32243142 0.26953524 -0.40288237 0.14932919 0.1278252 0.033344418 0.29027653
0.38377112 -0.033001482 -0.004324645 0.020635575 0.2321223 -0.01717189 -0.17491773 0.2851833
-0.081931025 0.35279632 0.33838212 0.25068694 0.3647092 -0.29199484 -0.12687665 -0.34759328
-0.3860323 0.15948391 -0.22352107 0.37761402 -0.29659325 -0.33843535 0.1281457 -0.18153478
-0.14712757 0.39192098 0.32672983 -0.20547082 -0.335162 -0.28371954 -0.31011748 -0.14374706
0.357517 -0.25595033 0.054276973 -0.008134872 -0.2105367 0.04864198 -0.019286811 -0.21375963
-0.23546973 -0.27228922 -0.24951975 -0.3954906 0.24519974 0.31773776 -0.37310562 0.32307613
-0.25064653 0.23620355 0.34825182 0.11672723 0.13659841 -0.072603315 0.2746461 0.30991817
-0.3115099 0.08745131 -0.10492325 0.18946373 -0.34097886 0.3895386 0.06977597 -0.0053953826
00000000: 24d0 ecbd 704e 3fbe 28f6 18bd 106d a43c
00000010: 8024 aebc 300c ddbc 70bd 8fbc c0ed b33b
00000020: 07e7 58be ff50 38be c028 b73e 86ca cc3e
00000030: 50a3 4c3e 8083 6e3d 581a 00be 5435 903d
00000040: 58c3 a03e 7847 6a3e 49b5 65be f70f a7be
00000050: d87f 1cbd 3a55 8cbe f4c4 673e 9467 353e
00000060: e1e6 c3be d05f 29bd 3448 393e 4753 92be
00000070: 5008 c0bd a06f 61bc caf1 b2be 043a ddbd
00000080: 75d0 cdbe 0ab3 78be 4474 3c3e 96eb bbbe
00000090: 6eac bd3e 80d4 b5bc 581d 8e3e 50cf 253d
000000a0: 48d4 02bd 8c6f b4be f392 30be 8e1a 1ebe
000000b0: a882 5a3e 84a7 abbd 44da 9dbe a862 7f3d
000000c0: 982e ebbd c3fd 7cbe 5abf 9f3e 6cd6 ba3e
000000d0: 7829 dbbd 1314 cfbe 8439 c5bd 0015 d33a
000000e0: c61c 4cbe 5ca6 ae3e f24a 8c3e 40de 653e
000000f0: c819 4b3d 2c25 7f3e e4b2 efbd 6022 073e
00000100: 70a0 6abe 82f4 a2be 2023 dd3d 7a98 73be
00000110: fa79 a33e f0ef 053e 70d6 00bd 8ee7 c3be
00000120: fd2a 39be 9afb 35be c0dc c53e 8ee3 b4be
00000130: 0848 d23d be7c a83e 8430 403e 388c b4bd
00000140: d8a9 56be 307b 983c 5001 97bc 8770 62be
00000150: e8a0 df3d b8d9 213d 4206 4fbe c6aa 2ebe
00000160: 0ac2 d03e 6865 703d 567c 25be 7c30 873e
00000170: e028 1cbc e86b ac3e 4434 5e3e faba b33e
00000180: f0fa 643e 0c99 b53d 9afb b73e c469 333e
00000190: 2021 983d 2d20 c2be a873 053e 0690 9bbe
000001a0: 32e4 b43e c7f8 bfbe 8888 c8bd f6dc 9e3e
000001b0: e3cd c3be 8991 58be b750 4fbe f03f 6c3d
000001c0: 50b3 12be 6eb6 c7be 6b93 b3be d04b 03bd
000001d0: e3f8 b1be 04cf f3bd d881 493e e6d2 08be
000001e0: a862 c33d 5815 5b3e 83ef 37be e12e 8dbe
000001f0: 981d cd3d 009d 2abc f8b4 afbe 5800 603e
00000200: b0cc d6bc 0468 96bd 9aab 45be 9cbc a63e
00000210: fb0f c2be 506c c7be 4864 54be 4839 66bd
00000220: f4ee cbbe 7885 703e 42e2 a13e 0ae7 00be
00000230: a0ef 8ebc 98ff a5be 1ab4 833e a329 53be
00000240: 6012 bc3d b481 b63d d831 1a3e d814 95bd
00000250: d09c debc c8b5 03bd 1ebf b0be b4db 4c3e
00000260: 724a 97be 21f9 9abe 8066 fe3d 78c0 79bd
00000270: ee24 61be 1f40 afbe 708d acbe 3a93 48be
00000280: 705f 2bbd 2c86 883e d45c 1bbe 68ad 363e
00000290: 2c78 843d 408a 0cbe c4fb 3a3e 0c7a 223e
000002a0: 0079 513d 8a1d d03e 9063 afbd 5c5f c03e
000002b0: 5298 8d3e 6f1e 22be 5d56 b9be 5a02 b5be
000002c0: 06e2 82be 4422 a83e 2619 d03e 95d9 b9be
000002d0: fcbc aebe 9305 b4be d072 f03d 9498 823e
000002e0: 387c d1bd bb15 a5be 8600 8a3e 9946 cebe
000002f0: c0e9 183e 9ce4 023e 2894 083d 209f 943e
00000300: a67d c43e 902c 07bd c0b5 8dbb f00b a93c
00000310: 78b1 6d3e 10ac 8cbc a21d 33be 8c03 923e
00000320: 74cb a7bd b8a1 b43e 6c40 ad3e 0a5a 803e
00000330: 2abb ba3e 5980 95be f4eb 01be bff7 b1be
00000340: 07a6 c5be c04f 233e b5e2 64be a056 c13e
00000350: 12db 97be 6647 adbe a038 033e 41e4 39be
00000360: 9ca8 16be dea9 c83e 2249 a73e f166 52be
00000370: 5b9a abbe b043 91be b8c7 9ebe 6e32 13be
00000380: 780c b73e ec0b 83be 8851 5e3d 2048 05bc
00000390: ef96 57be d03c 473d 60ff 9dbc cee3 5abe
000003a0: fa1e 71be 7e69 8bbe 1b82 7fbe be7d cabe
000003b0: a415 7b3e 86ae a23e b307 bfbe 3c6a a53e
000003c0: be54 80be 58df 713e 104e b23e b00e ef3d
000003d0: 74e0 0b3e 0cb1 94bd 6a9e 8c3e 98ad 9e3e
000003e0: 3a7e 9fbe ac19 b33d 00e2 d6bd c802 423e
000003f0: c894 aebe 9a71 c73e b4e6 8e3d c0cb b0bb

main_model.hiddenlayer_0.weight f4 [256, 256]
0.0042298287 -0.0025631413 0.0227976 -0.047541536 -0.018451951 -0.025931336 0.060145125 0.011300698
-0.044573463 -0.018432401 -0.049664117 -0.057064317 0.037049003 0.047046006 0.0372015 0.002036281
-0.033969223 -0.034738876 -0.01620838 -0.04963363 -0.021138698 -0.04848416 0.050281964 0.029536553
0.0037121698 0.010964863 0.03913638 -0.03811697 0.03783205 -0.016303845 -0.0035966411 0.02633772
-0.04028281 0.03313662 -0.060392 0.030256331 0.0442854 0.057547554 -0.04237117 0.0032091066
0.04129999 0.0042526424 0.058111325 -0.03643298 -0.030502185 -0.029457092 -0.04266551 0.05648201
0.013635583 0.061205544 0.0011970624 -0.055923402 -0.006594911 -0.0099139735 -0.054758973 0.0051875785
-0.020153672 0.01205878 0.014940292 -0.03814619 0.029857978 -0.018317215 -0.041629985 -0.025751859
0.027638055 0.010982946 0.002768211 0.04355251 -0.01846002 0.035404928 0.024437241 -0.04840119
0.052846715 -0.042112157 0.05558777 0.05113726 0.058316126 -0.037221745 -0.022199482 0.0022525787
-0.028414123 0.017251737 -0.048677325 -0.037198305 -0.04499699 0.013960831 0.059115514 -0.06244871
-0.046973556 -0.0049926564 0.042103216 -0.037751667 -0.041973516 0.026436992 0.015340842 0.048163757
0.012926795 -0.036247164 0.061746314 0.059140965 0.04627136 -0.019739024 -0.03433148 0.018073462
-0.05312077 -0.060731553 -0.0063920394 0.045903623 0.022686213 -0.003819108 0.0076733828 0.02007261
-0.03528571 -0.05928942 0.059946306 0.043749146 0.05304437 0.025415652 0.060336202 -0.02267208
-0.044762336 0.03680382 -0.019010372 -0.05467359 -0.050474957 2.5741756e-05 0.009014994 0.01782585
-0.022255346 -0.013265073 0.008490272 0.04037945 0.019155324 -0.031672694 -0.0155539885 0.009771951
-0.05921845 -0.021374933 0.012718774 -0.059050567 0.013071664 -0.032373734 0.03825871 -0.048905067
-0.021986619 -0.013836257 -0.013844043 -0.04150685 0.055976965 -0.007928826 -0.026639715 -0.060643718
0.02835878 0.014315464 -0.048964404 -0.0028131455 -0.032571808 -0.002225116 -0.036923245 0.04537911
0.058592215 -0.06154932 -0.043869525 0.03993076 -0.022086635 -0.0075823814 0.058165923 0.042616077
-0.03905096 0.0330958 -0.029870145 -0.008124538 -0.04697767 0.007097572 -0.038282037 -0.052275024
-0.029019319 -0.0022947863 -0.01861196 0.024242215 -0.04711487 -0.0142145455 0.020084463 -0.027514078
0.04581116 0.04411871 0.04595367 -0.045000933 0.025950216 -0.025307097 0.0036767796 -0.02844464
0.04406102 0.009120144 0.019291326 -0.0053377673 0.03958784 0.023443498 0.02265472 -0.018366784
0.054853775 0.008325584 -0.010010116 -0.020861179 0.0021401718 0.04348004 -0.032735012 -0.054047607
0.024444506 -0.05622822 -0.060254082 0.041722327 0.010519944 -0.016717099 -0.018105514 -0.011061959
-0.042980537 -0.03218784 0.061775118 -0.024883658 -0.038836695 0.028895818 -0.010280296 -0.042228706
-0.014624931 0.008236781 -0.010121889 -0.013945349 -0.00536453 -0.013323143 0.003660448 0.009771407
-0.00862129 -0.0019729212 0.04485119 0.00068760663 -0.02928716 -0.013817191 0.05116625 0.016401969
-0.044543847 0.04050137 0.022968218 0.06178701 0.007234983 -0.02951032 -0.03517396 0.04935956
0.032590203 0.009702146 -0.015535586 -0.05714497 -0.058170088 0.06127379 0.046603493 -0.023384623
00000000: 609a 8a3b 60fa 27bb 08c2 ba3c eaba 42bd
00000010: 8c28 97bc f46d d4bc bc5a 763d 9026 393c
00000020: aa92 36bd 8cff 96bc 9a6c 4bbd 46bc 69bd
00000030: b2c0 173d 50b3 403d 9a60 183d 2073 053b
00000040: 5023 0bbd 5a4a 0ebd 70c7 84bc a24c 4bbd
00000050: 102b adbc 5497 46bd 76f4 4d3d a4f6 f13c
00000060: e047 733b f8a5 333c 784d 203d 8a20 1cbd
00000070: c8f5 1a3d a48f 85bc a0b5 6bbb 34c2 d73c
00000080: 96ff 24bd 44ba 073d 9a5d 77bd 20dc f73c
00000090: 9c64 353d fcb6 6b3d 648d 2dbd e04f 523b
000000a0: 2e2a 293d c059 8b3b 2406 6e3d c03a 15bd
000000b0: b8df f9bc 0050 f1bc 08c2 2ebd ae59 673d
000000c0: c867 5f3c aab2 7a3d c0e6 9c3a f00f 65bd
000000d0: 201a d8bb 386e 22bc f24a 60bd 90fc a93b
000000e0: 5019 a5bc 3092 453c 20c8 743c 2e3f 1cbd
000000f0: b898 f43c fc0d 96bc 3484 2abd 90f5 d2bc
00000100: 3469 e23c d0f1 333c e06a 353b 1e64 323d
00000110: 7839 97bc c204 113d 9c30 c83c 5440 46bd
00000120: cc75 583d cc7d 2cbd 00b0 633d 4e75 513d
00000130: e4dc 6e3d d475 18bd b0db b5bc 00a0 133b
00000140: bcc4 e8bc 8453 8d3c e061 47bd 405d 18bd
00000150: c44e 38bd f8bb 643c 1c23 723d 38ca 7fbd
00000160: 5867 40bd 7099 a3bb 6c74 2c3d 7ea1 1abd
00000170: 6cec 2bbd 6492 d83c 2858 7b3c 5c47 453d
00000180: e8ca 533c e877 14bd b4e9 7c3d cc3d 723d
00000190: 0a87 3d3d bcb3 a1bc 2a9f 0cbd cc0e 943c
000001a0: 2a95 59bd a6c1 78bd 5074 d1bb 7005 3c3d
000001b0: 70d8 b93c 004a 7abb 0071 fb3b 506f a43c
000001c0: c087 10bd 76d9 72bd 428a 753d 4e32 333d
000001d0: 0e45 593d 7c34 d03c 1823 773d ccba b9bc
000001e0: b658 37bd 9abf 163d a4bb 9bbc 6af1 5fbd
000001f0: d4be 4ebd 00f0 d737 a0b3 133c 8407 923c
00000200: d850 b6bc c055 59bc c81a 0b3c ec64 253d
00000210: a0eb 9c3c 3abb 01bd 28d6 7ebc 881a 203c
00000220: 0c8f 72bd 7c1a afbc 6862 503c 02df 71bd
00000230: 882a 563c 529a 04bd 2ab5 1c3d ae50 48bd
00000240: 481d b4bc 78b1 62bc 20d2 62bc 1603 2abd
00000250: 1a48 653d e8e7 01bc 883b dabc 8c65 78bd
00000260: ac50 e83c 688b 6a3c e68e 48bd c05c 38bb
00000270: 046a 05bd 40d3 11bb d43c 17bd 72df 393d
00000280: 64fe 6f3d 241b 7cbd 88b0 33bd 708e 233d
00000290: 08ef b4bc a075 f8bb 643f 6e3d 328e 2e3d
000002a0: e6f3 1fbd 768f 073d 3cb2 f4bc c81c 05bc
000002b0: a86b 40bd c092 e83b a0cd 1cbd 561e 56bd
000002c0: ecb9 edbc 2064 16bb 1c78 98bc 9c97 c63c
000002d0: 86fb 40bd 20e4 68bc 2c88 a43c 3465 e1bc
000002e0: 7ca4 3b3d d2b5 343d ea39 3c3d e652 38bd
000002f0: 8c95 d43c d450 cfbc 20f6 703b bc04 e9bc
00000300: 5479 343d a86c 153c d808 9e3c 70e8 aebb
00000310: dc26 223d 940c c03c 6496 b93c f075 96bc
00000320: 5aae 603d 0868 083c 7801 24bc 10e5 aabc
00000330: 2042 0c3b 2018 323d 2615 06bd 0661 5dbd
00000340: d83f c83c 904f 66bd fccc 76bd 08e5 2a3d
00000350: d85b 2c3c 4cf2 88bc 0452 94bc 383d 35bc
00000360: 5c0c 30bd 66d7 03bd e807 7d3d d0d8 cbbc
00000370: 3a13 1fbd ecb6 ec3c b06e 28bc 02f8 2cbd
00000380: 689d 6fbc 90f3 063c 48d6 25bc 087b 64bc
00000390: f0c8 afbb 5049 5abc 20e4 6f3b 4018 203c
000003a0: 5040 0dbc 204c 01bb e2b5 373d 8040 343a
000003b0: a0eb efbc 8061 62bc b493 513d 6c5d 863c
000003c0: 9c73 36bd c4e4 253d d827 bc3c 6014 7d3d
000003d0: 7013 ed3b a0bf f1bc 9212 10bd 402d 4a3d
000003e0: 4e7d 053d c0f5 1e3c f888 7ebc d810 6abd
000003f0: c243 6ebd 3afa 7a3d 4ee3 3e3d 1c91 bfbc

main_model.hiddenlayer_0.bias f4 [256]
0.020447724 0.02779711 0.004049547 -0.021269016 -0.01959616 -0.006457895 0.035990126 0.058887236
0.061293244 0.048302636 -0.03003572 0.027060218 -0.058858596 0.045464896 -0.014871806 -0.058007196
-0.047891058 0.051970042 -0.0018254519 -0.019337803 0.018774383 -0.024268672 -0.0121616945 0.03439357
-0.056317024 0.018738002 0.0029889718 0.049804345 0.054290935 -0.0063534454 0.060721785 0.023925804
0.006001182 0.050966986 -0.021842755 -0.0565067 0.06061706 0.058587223 -0.049941525 -0.010806479
-0.0154341385 -0.011069879 0.0004163012 -0.028090253 -0.00035253912 -0.016270384 0.005136393 0.040416226
0.035056673 0.032629892 0.020345211 -0.0077020302 -0.04351969 -0.030545592 0.0028052106 0.035174288
0.029040582 -0.060810104 0.03899855 -0.037775636 0.025443107 0.023172729 -0.04945808 -0.047313385
-0.05652467 0.0484311 -0.02653464 0.061456718 0.02780462 -0.042912014 0.061359838 0.0009078905
-0.048639618 0.04813169 0.017614357 -0.053209394 -0.0018097907 0.034204938 -0.04450061 -0.030549295
0.029567294 0.0012609586 -0.026520252 -0.043405794 0.05898056 -0.061842754 -0.013323337 -0.047707297
-0.025832333 0.025561817 -0.04022879 0.048904143 0.022751868 0.0021391958 -0.025709845 0.004028678
-0.045360394 0.04240012 -0.041040026 -0.0056935847 -0.00262402 -0.024081193 0.060900196 0.027516559
0.00832691 0.024698347 -0.039584935 0.041310072 -0.0501683 0.01813095 -0.007984437 0.032247335
0.028744526 -0.0509952 -0.012560792 -0.029508926 -0.054898016 -0.015672281 -0.02952391 0.013657227
-0.0028754696 -0.03847176 -0.027564704 -0.03645253 0.044617668 0.0118054375 -0.011345871 0.013524413
-0.031437688 0.015091136 0.03894119 0.0016640425 0.0150580555 -0.029953606 0.025395207 -0.05773803
-0.015441798 -0.016527578 0.058372565 -0.0427 0.03997147 0.0066692904 -0.00273107 0.041805714
0.059451737 -0.05580339 0.020654008 0.0058025196 0.027838208 0.059393078 0.0031239614 -0.024913944
0.013318732 -0.04388936 -0.05928739 0.050550602 0.031617366 0.02694203 0.027084552 0.0014746338
-0.042536058 0.032668583 -0.030409247 -0.0010502264 -0.0022037253 -0.05417802 -0.039518334 -0.049397305
-0.028869338 0.0060818493 0.00077204406 0.03209196 -0.049979627 0.026251726 -0.046846308 -0.047761142
0.031017452 -0.025806539 -0.013973363 -0.045829833 -0.057776824 -0.050231807 0.062052235 0.016055837
-0.03439741 -0.03868328 0.054908678 0.018224493 -0.009958208 0.03537464 0.0017163232 -0.0071574077
-0.006089397 0.05354552 0.03059867 0.0076266006 -0.03988289 0.027674168 -0.051550403 -0.023646988
-0.021763995 0.015147284 0.053710304 -0.059274927 0.043706253 0.033401877 -0.01279556 -0.046712346
0.0041596442 0.0050361976 0.028467827 -0.0075463504 0.038828366 0.019634686 -0.024528272 0.05042634
0.050452173 -0.01417052 0.05758188 0.04317452 -0.017678395 -0.024285413 -0.04430844 0.01130373
-0.0041224062 -0.017014235 -0.043904997 0.045837887 0.016692296 -0.04022386 -0.06186817 0.061087854
-0.03901676 -0.0029916838 0.026744723 -0.016040064 -0.0445605 0.05248268 -0.01766827 -0.054209203
-0.059029266 -0.05727794 -0.032981053 0.03433036 -0.036195464 -0.047393367 -0.015571013 0.059103966
0.015625924 -0.023017988 -0.05379028 0.050808154 0.03246493 -0.05126757 0.027785987 -0.039084017
00000000: fc81 a73c c4b6 e33c 10b2 843b 5c3c aebc
00000010: 2088 a0bc c09c d3bb 626a 133d be33 713d
00000020: a00e 7b3d fcd8 453d 780d f6bc 64ad dd3c
00000030: b615 71bd 6639 3a3d e0a8 73bc f498 6dbd
00000040: 6a29 44bd 8ade 543d 0044 efba 506a 9ebc
00000050: bccc 993c 18cf c6bc d841 47bc 46e0 0c3d
00000060: aeac 66bd 7080 993c a0e2 433b a4ff 4b3d
00000070: 2c60 5e3d 9030 d0bb 68b7 783d 0c00 c43c
00000080: 90a5 c43b c2c2 503d 94ef b2bc 9273 67bd
00000090: 9849 783d 28f9 6f3d 7c8f 4cbd a80d 31bc
000000a0: 78df 7cbc 705e 35bc 0043 da39 881d e6bc
000000b0: 00d5 b8b9 7849 85bc 304f a83b 7c8b 253d
000000c0: 9697 0f3d eca6 053d 00ab a63c 5061 fcbb
000000d0: b441 32bd c03a fabc a0d7 373b ea12 103d
000000e0: 84e6 ed3c 0414 79bd f2bc 1f3d a0ba 1abd
000000f0: 106e d03c bcd4 bd3c 8e94 4abd aecb 41bd
00000100: 6a86 67bd b05f 463d 2c5f d9bc 0aba 7b3d
00000110: 84c6 e33c 82c4 2fbd 7454 7b3d 80ff 6d3a
00000120: 563a 47bd bc25 453d fc4b 903c 18f2 59bd
00000130: 8036 edba 7a1a 0c3d 4646 36bd 8442 fabc
00000140: 1c37 f23c c046 a53a 0041 d9bc 46ca 31bd
00000150: 9a95 713d d44e 7dbd 204a 5abc ba68 43bd
00000160: 549e d3bc 0467 d13c f2c6 24bd b64f 483d
00000170: 2062 ba3c c031 0c3b 749d d2bc 0003 843b
00000180: d2cb 39bd c0ab 2d3d 9619 28bd 4091 babb
00000190: c0f7 2bbb ec45 c5bc 7c72 793d 686a e13c
000001a0: 986d 083c 3054 ca3c d023 22bd c034 293d
000001b0: 467d 4dbd 5c87 943c 28d1 02bc c815 043d
000001c0: a479 eb3c 58e0 50bd c8cb 4dbc b4bc f1bc
000001d0: bedc 60bd 2863 80bc 20dc f1bc 90c2 5f3c
000001e0: 6072 3cbb 9094 1dbd 60cf e1bc 404f 15bd
000001f0: 04c1 363d 986b 413c 08e4 39bc 8095 5d3c
00000200: cec4 00bd d040 773c cc80 1f3d 001c da3a
00000210: 10b6 763c 4461 f5bc 9c09 d03c b67e 6cbd
00000220: 98ff 7cbc d864 87bc 1218 6f3d 32e6 2ebd
00000230: 20b9 233d 108a da3b c0fb 32bb 783c 2b3d
00000240: aa83 733d 1892 64bd 9832 a93c 1023 be3b
00000250: f40c e43c 2846 733d 60bb 4c3b 5418 ccbc
00000260: d036 5a3c 54c5 33bd 56d7 72bd 260e 4f3d
00000270: 3681 013d 88b5 dc3c 6ce0 dd3c 8048 c13a
00000280: 4a3a 2ebd 7ecf 053d d01c f9bc c0a7 89ba
00000290: 606c 10bb c6e9 5dbd fadd 21bd d454 4abd
000002a0: 647f ecbc 404a c73b 0063 4a3a dc72 033d
000002b0: 70b7 4cbd dc0d d73c eae1 3fbd 30a1 43bd
000002c0: 5018 fe3c 3c68 d3bc 88f0 64bc 10b8 3bbd
000002d0: 64a7 6cbd debf 4dbd 7c2a 7e3d 8887 833c
000002e0: 4ce4 0cbd 5c72 1ebd ece7 603d 884b 953c
000002f0: c027 23bc 00e5 103d 40f6 e03a b088 eabb
00000300: 9089 c7bb 8c52 5b3d 10aa fa3c 90e8 f93b
00000310: 3e5c 23bd f0b4 e23c 8426 53bd 54b7 c1bc
00000320: 684a b2bc 502c 783c 56ff 5b3d 44ca 72bd
00000330: 5405 333d 68d0 083d 78a4 51bc 7255 3fbd
00000340: a04d 883b b006 a53b 5c35 e93c 6047 f7bb
00000350: 7e0a 1f3d ecd8 a03c 84ef c8bc da8b 4e3d
00000360: f0a6 4e3d 782b 68bc fada 6b3d c4d7 303d
00000370: 48d2 90bc 34f2 c6bc c47c 35bd 4833 393c
00000380: 4015 87bb 7061 8bbc bad5 33bd 82c0 3b3d
00000390: 48be 883c c6c1 24bd 7a69 7dbd 4237 7a3d
000003a0: 0ad0 1fbd 2010 44bb c017 db3c 7466 83bc
000003b0: 1285 36bd 14f8 563d 0cbd 90bc 780a 5ebd
000003c0: acc8 71bd 469c 6abd 2417 07bd fe9d 0c3d
000003d0: b241 14bd 8c1f 42bd 901d 7fbc 0017 723d
000003e0: f001 803c 3890 bcbc 3253 5cbd 361c 503d
000003f0: f2f9 043d f2fd 51bd 709f e33c 9016 20bd

main_model.OutputLayer.weight f4 [3, 256]
-0.03650111 -0.01707562 0.007984109 -0.025367968 -0.01580865 -0.03175745 0.027008004 0.04277406
-0.008654721 0.027164526 -0.0017278567 0.022520043 -0.051441684 0.057301514 0.061656095 0.03912223
-0.041564688 -0.034773648 -0.051340424 0.029790215 -0.048804067 -0.011250682 -0.06153048 0.03432502
-0.062187485 -0.061490163 0.043280423 0.0032543018 -0.029193886 0.03537471 0.0579803 0.012236372
-0.01349134 0.051816463 0.051170938 -0.053211927 -0.0043038875 -0.007969752 -0.051537707 0.05024731
-0.03023015 -0.0102987215 0.02341833 0.044152677 0.024590343 0.012620039 -0.028022565 0.02504845
-0.033270955 -0.044627585 -0.017444067 -0.05558394 0.016880326 0.04162331 -0.022075035 -0.009198397
0.06154771 0.00326135 0.044954225 -0.021410495 0.0578937 0.0589097 0.036431596 0.032060057
-0.009026729 -0.012419954 -0.0010003373 0.046910062 -0.044524677 0.026937433 -0.04096227 0.0027590394
0.05442062 -0.01909659 -0.009365395 -0.0017301217 -0.0045420974 -0.054567732 0.027791545 0.0597794
0.024174355 -0.031464532 0.03075441 -0.046205297 -0.062156066 -0.059739016 -0.05583535 0.0005468279
0.046176486 -0.024296008 0.042339996 0.015127353 -0.042917125 -0.018313617 -0.012197703 -0.056817435
-0.048485734 -0.035906702 -0.05989644 -0.019692391 0.016232647 -0.052836686 -0.022337548 0.011750333
0.027516715 -0.025808595 -0.02603449 -0.034290917 -0.028304547 -0.052065343 -0.050881803 0.022938304
-0.05305174 0.05567012 0.06224615 -0.05213333 0.057154417 -0.029124476 0.009484157 -0.041059315
0.012351468 -0.02630812 -0.031791076 0.05494672 0.022009559 -0.045139655 0.036707953 -0.011991702
0.026694715 -0.016570188 0.047421947 0.008517876 -0.05984982 0.057287514 -0.0303924 -0.028086454
-0.016108133 0.030632399 -0.03234738 0.013313413 -0.023266897 -0.0024135858 0.011137821 -0.043011487
0.0019781888 0.05698333 0.05054664 -0.018988281 0.05651936 -0.050393037 0.0195717 0.061825126
0.011143237 -0.0026802272 -0.015299469 0.013671882 -0.020957388 0.029676065 0.05247286 -0.033754714
-0.013728671 0.023586363 -0.027373172 0.038668945 -0.023287438 -0.005120218 -0.005248077 -0.034387946
0.014618315 0.014010936 0.012857534 -0.028317183 0.054089047 0.043860294 -0.011323877 0.033895016
-0.006375782 0.03769955 0.051041156 0.011012636 -0.025317967 0.048419535 0.008275673 0.025148273
-0.040660605 -0.01551383 -0.023466028 -0.05370266 -0.03048724 0.009771794 0.018514588 -0.04621966
0.001173161 -0.008306257 -0.027584806 -0.032949872 0.03432125 -0.03387224 -0.03311842 -0.06186922
0.018817365 -0.0103881955 -0.0039875805 -0.0422446 -0.056046084 0.02176734 0.013849013 0.03338343
0.04058788 0.052329272 0.044083953 -0.041176774 0.05852583 -0.05829677 0.003975846 0.055089056
0.001768142 0.047000475 0.033514515 -0.049149424 -0.041076116 0.007053867 -0.049411416 0.017715633
0.017797068 -0.03793432 -0.017226242 -0.019897334 -0.048495322 -0.036269 0.034346685 -0.02215176
0.0142891705 0.049367078 0.029655442 0.047932036 -0.04903052 -0.0024941638 -0.027071893 0.054606788
0.05993014 0.044568375 0.024000533 -0.030107737 -0.0453711 -0.0027483925 0.04162377 0.029883549
-0.027490519 -0.058389075 0.008056916 -0.054742284 0.060808353 0.04327946 0.04205928 0.043674283
00000000: 3082 15bd 2ce2 8bbc c8cf 023c 7cd0 cfbc
00000010: 2481 81bc 1a14 02bd e43f dd3c da33 2f3d
00000020: 88cc 0dbc 2488 de3c 4079 e2ba f47b b83c
00000030: 84b4 52bd feb4 6a3d 1a8b 7c3d a23e 203d
00000040: bc3f 2abd d06e 0ebd 564a 52bd 9c0a f43c
00000050: c6e6 47bd c854 38bc 6207 7cbd 6498 0c3d
00000060: 4eb8 7ebd 1cdd 7bbd d046 313d 2046 553b
00000070: 0428 efbc 12e5 103d c07c 6d3d 107b 483c
00000080: c80a 5dbc 803d 543d 9e98 513d c0f4 59bd
00000090: a007 8dbb 9093 02bc 3419 53bd 20d0 4d3d
000000a0: 38a5 f7bc f8bb 28bc ccd7 bf3c 70d9 343d
000000b0: b071 c93c 48c4 4e3c 948f e5bc 6832 cd3c
000000c0: 2047 08bd 6acb 36bd dce6 8ebc fcab 63bd
000000d0: 9c48 8a3c 347d 2a3d b4d6 b4bc e0b4 16bc
000000e0: 7419 7c3d 60bc 553b ec21 383d 1065 afbc
000000f0: f221 6d3d 4c4b 713d 4c39 153d 6851 033d
00000100: d8e4 13bc 107d 4bbc c01d 83ba c424 403d
00000110: 825f 36bd e4ab dc3c 0ec8 27bd 00d1 343b
00000120: 28e8 5e3d 7470 9cbc 5071 19bc 40c5 e2ba
00000130: e0d5 94bb 6a82 5fbd 18ab e33c 3edb 743d
00000140: 4c09 c63c f4e0 00bd acf0 fb3c c441 3dbd
00000150: 5c97 7ebd e6b0 74bd 9cb3 64bd 0059 0f3a
00000160: 8e23 3d3d 6c08 c7bc b46c 2d3d b8d8 773c
00000170: dec9 2fbd 7006 96bc e0d8 47bc 66b9 68bd
00000180: fa98 46bd e812 13bd f855 75bd f051 a1bc
00000190: 54fa 843c 486b 58bd 3cfd b6bc 7884 403c
000001a0: bc6a e13c 8c6c d3bc 4846 d5bc a274 0cbd
000001b0: f0de e7bc 7842 55bd 7069 50bd 1ce9 bb3c
000001c0: c84c 59bd 5a06 643d d2f5 7e3d c289 55bd
000001d0: c01a 6a3d 7496 eebc 7063 1b3c d02d 28bd
000001e0: d05d 4a3c 2084 d7bc 5c37 02bd d00f 613d
000001f0: 644d b43c 5ce4 38bd 145b 163d d878 44bc
00000200: e0ae da3c 34be 87bc 843d 423d 908e 0b3c
00000210: 1625 75bd 50a6 6a3d 7cf9 f8bc 9015 e6bc
00000220: 34f5 83bc ccf0 fa3c b07e 04bd 8020 5a3c
00000230: 389a bebc 402d 1ebb 687b 363c d02c 30bd
00000240: 80a4 013b 5a67 693d fe09 4f3d 508d 9bbc
00000250: d880 673d ee68 4ebd d454 a03c 583c 7d3d
00000260: 2092 363c c0a6 2fbb a0aa 7abc 0800 603c
00000270: d4ae abbc 381b f33c c8ed 563d 6242 0abd
00000280: 38ee 60bc 3038 c13c b43d e0bc 5463 1e3d
00000290: 4cc5 bebc 80c7 a7bb 10f8 abbb 60da 0cbd
000002a0: a881 6f3c 208e 653c 68a8 523c 70f9 e7bc
000002b0: 7a8c 5d3d daa6 333d c887 39bc 80d5 0a3d
000002c0: f0eb d0bb d86a 1a3d 8810 513d 586e 343c
000002d0: a067 cfbc 9053 463d b096 073c c003 ce3c
000002e0: bc8b 26bd b82d 7ebc d43b c0bc 52f7 5bbd
000002f0: 60c0 f9bc e019 203c e8ab 973c d450 3dbd
00000300: c0c4 993a f816 08bc 88f9 e1bc 72f6 06bd
00000310: 7094 0c3d 9ebd 0abd 2ea7 07bd 946a 7dbd
00000320: e026 9a3c 4033 2abc 40aa 82bb ac08 2dbd
00000330: 9490 65bd 6c51 b23c f8e6 623c 10bd 083d
00000340: 7a3f 263d 3857 563d 6091 343d faa8 28bd
00000350: c8b8 6f3d 98c8 6ebd d047 823b 10a5 613d
00000360: 00c1 e73a 9283 403d 8446 093d e850 49bd
00000370: 6e3f 28bd 2024 e73b a063 4abd 6020 913c
00000380: 28cb 913c 0461 1bbd 0c1e 8dbc bcff a2bc
00000390: 08a3 46bd ce8e 14bd 1caf 0c3d 9c77 b5bc
000003a0: 201d 6a3c 2235 4a3d f8ef f23c 6254 443d
000003b0: 3ad4 48bd 2075 23bb e0c5 ddbc 5eab 5f3d
000003c0: 4e79 753d 548d 363d c49c c43c 80a4 f6bc
000003d0: 0cd7 39bd 601e 34bb b07d 2a3d 58ce f43c
000003e0: cc33 e1bc 6229 6fbd 2801 043c 7239 60bd
000003f0: 2e12 793d ce45 313d 5a46 2c3d cee3 323d

main_model.OutputLayer.bias f4 [3]
0.007306248 0.060096867 -0.051491402
00000000: 4069 ef3b 2228 763d a6e8 52bd
