DQN_incomplete/save/main_model_000001.pth (torch_old, 274770 bytes, 6 tensors)

main_model.InputLayer.weight f4 [256, 6]
00000000: 101d 5bbe fc93 213e 7c7b 133e 7ca9 1e3e
00000010: 2465 343e 58ab 303d e839 5ebd 2063 5abc
00000020: 843c 2d3e d2e4 97be a8a5 02be b8d1 c5bd
00000030: 2070 e2bc 9c1e 83bd 4fe1 47be ba7b 4dbe
00000040: 0cb9 a33d 40a4 8dbd 942c f5bd f2bb 8a3e
00000050: 5432 f2bd ffcf b0be 942a 6e3e d5e3 b1be
00000060: 58e4 cb3e a224 c73e 78a2 753e 2473 383e
00000070: 40c5 aebb 74de b6bd b449 adbe 0007 bebd
00000080: b034 ef3d 90ad 863c 8818 473e 0cba b53e
00000090: 24c9 323e 8851 dc3d 5ac0 bcbe 58c3 25be
000000a0: 370a 88be 0030 b7be e475 5f3e 72ed 863e
000000b0: 34e6 03be 6aa0 c7be c0c0 ecbd c8e4 88bd
000000c0: 4890 c43d 7ce0 b3be 648e 9e3d f8ad d0bd
000000d0: c4ee 493e fc5d b73e 08df 89bd d447 b1be
000000e0: 8e19 cf3e 40b2 a1bb 504c c33c a0ea 1bbc
000000f0: 021c c33e a803 8e3d 58c6 d43d 2cda 3d3e
00000100: 2cac 9d3d 88eb 8bbd 8a28 18be 7ac4 92be
00000110: 0006 443b 0cf5 81be 4c0d c8be a080 6dbe
00000120: 2838 813d b090 82bd 6125 72be e7c1 a7be
00000130: 803c 803b e446 e8bd 7828 8b3e 0c9d a23d
00000140: 8632 cfbe a877 b23e 207a ccbc 005c 453b
00000150: c413 113e 5053 8f3e b0ce 943e aa50 cfbe
00000160: 20f7 34be f84e 683e f4fa 96bd 8888 973e
00000170: 346d 0a3e 60a4 c33e 284a f3bd 8ca3 483e
00000180: 8c9e b13e 2211 a2be 708c 6a3e 6ca3 3b3e
00000190: 8f3c babe 3a7f 803e 5403 95bd e44e 283e
000001a0: 807b 4abc e4df bb3d 5e47 9c3e dc9e adbd
000001b0: 5ca3 a6be fe8e b63e 2479 3f3e 2a11 9c3e
000001c0: 629d 93be 23a9 a9be 6c51 a23e 4056 033e
000001d0: 4890 e73d 105f a7bd 109e b73d 4a49 a13e
000001e0: 4c35 a73e e0d6 6f3d c7f7 38be 18e9 ba3e
000001f0: aa56 993e 8682 913e c046 e43b 7ce7 e0bd
00000200: ea43 b3be a877 7b3e a2ba 9cbe e687 c53e
00000210: 9058 e2bd 9061 3a3e c940 76be 4f48 c5be
00000220: b873 8ebd 3868 1abd e008 d63d b000 dc3c
00000230: a2fc b53e 00f0 c8b8 6cd0 843d a807 513e
00000240: ffe9 b4be 1128 2fbe defb b9be 59a3 babe
00000250: def9 b33e 4cc4 66be fc6c 8f3d 74ea 8c3e
00000260: 10b3 3cbd a4df 8e3e e4e2 ebbd 5c14 b9bd
00000270: 54b4 a2bd 64a5 72be 48ad bb3d 38a6 73bd
00000280: 4a1c 8a3e c9e5 7ebe 30ec d73c ae17 9dbe
00000290: 62b0 ce3e 44b6 bebd 3c61 cf3e a850 f23d
000002a0: 4038 f63d 27cf c2be e805 c73e 3a8c 983e
000002b0: e4d2 ac3d 11a2 8ebe de35 af3e 543b cbbe
000002c0: 3f38 7cbe 1028 a3bc 9dcb 9bbe e499 cc3e
000002d0: 6042 75bc ac44 b6be 4097 8cbd ce1f a03e
000002e0: a840 023d a170 3ebe b85e 4dbd 6097 9cbe
000002f0: 11f2 82be 9085 af3e 66cc bfbe 4868 e73d
00000300: 5c4b d4bd 60f8 243e ee4c a63e 6614 a63e
00000310: b0d3 bc3c 2038 7ebc 80ad ae3e fad4 3bbe
00000320: 6014 84bc 00a4 7dbd 64a6 9cbe 2839 d83d
00000330: 3892 fc3d 9c0b adbd 2435 8abd ce7f 5cbe
00000340: e035 cf3e 58ad ae3e 4cf4 883e bc5f 3c3e
00000350: a629 8c3e 981a 95be 7c90 5c3e 1c4e 03be
00000360: a421 b83e dc70 333e 29c8 b1be f045 b63e
00000370: b03c 3f3e 9648 46be efda 41be d414 34be
00000380: 505c 0f3d 406a 23be 7068 9abe 0cdc 3abe
00000390: 2daf 37be 6aff c1be 0ce8 833d 7cf7 8d3e
000003a0: c800 c7be c7e5 72be 8453 cebd 61ff cfbe
000003b0: 10c2 62bd 135f babe 0c26 9b3e 8e36 9f3e
000003c0: 0013 0a3e 806b 7f3b 4c37 ac3d 90e9 233e
000003d0: 7260 09be 801a 523b 6437 ac3e 345f b4be
000003e0: 5e95 a33e 3048 fd3d aa2a c63e a0af 243c
000003f0: 89f2 53be c883 a73e 156d 55be 90e1 e6bc
-0.21397805 0.15779108 0.14402574 0.1549434 0.17616707 0.043132156 -0.054254442 -0.013329297
0.16917616 -0.29666764 -0.12758505 -0.09659141 -0.027641356 -0.06402323 -0.19519542 -0.20066729
0.07994279 -0.06916094 -0.11971393 0.27096516 -0.118260056 -0.34533688 0.2325843 -0.34744135
0.3982265 0.38895136 0.23987758 0.18012673 -0.0053335726 -0.08929148 -0.33845294 -0.09278679
0.11679971 0.016440183 0.19442952 0.35493505 0.17459542 0.10757738 -0.36865503 -0.16187799
-0.26570293 -0.3577881 0.21822315 0.2635303 -0.12880784 -0.38989574 -0.11560202 -0.066842616
0.09597832 -0.35132205 0.077420026 -0.10189432 0.19719988 0.35813892 -0.06731993 -0.34625113
0.40449184 -0.004934579 0.0238401 -0.009516388 0.38107306 0.06934291 0.103893936 0.18540257
0.07698855 -0.068320334 -0.14859214 -0.28665525 0.0029910803 -0.25382268 -0.39072645 -0.23193598
0.06309539 -0.06375253 -0.23647071 -0.32765123 0.003913462 -0.11341646 0.27179313 0.079401106
-0.40468234 0.34856915 -0.024960577 0.003011465 0.14167696 0.2799325 0.2906394 -0.4049123
-0.17672396 0.22686374 -0.07372084 0.29596353 0.1351822 0.38211346 -0.118793786 0.19593638
0.34691274 -0.31653696 0.22905135 0.18324059 -0.36374328 0.25097066 -0.072760254 0.16436344
-0.012358546 0.09173563 0.305232 -0.08477566 -0.32546508 0.3565597 0.18698555 0.30481845
-0.2883101 -0.33136854 0.31702745 0.1282587 0.11306816 -0.081724286 0.08965695 0.31501228
0.3265785 0.05855453 -0.1806327 0.3650596 0.29948932 0.28419894 0.006966442 -0.10981652
-0.35012752 0.24557364 -0.3061114 0.38580245 -0.11052048 0.1820128 -0.24048151 -0.3853173
-0.06955665 -0.037697047 0.104509115 0.026855797 0.35544306 -9.581447e-05 0.06485066 0.20413077
-0.35334775 -0.17105128 -0.36324972 -0.3645275 0.3515157 -0.22535819 0.07003209 0.27522624
-0.046069205 0.27905 -0.11517885 -0.09037086 -0.07944551 -0.23695904 0.0916391 -0.05948469
0.26974708 -0.24892344 0.02635774 -0.3068213 0.40368944 -0.09312108 0.4050387 0.1183179
0.120224476 -0.3804867 0.38871694 0.29794484 0.08438662 -0.27858022 0.34220785 -0.396937
-0.24630831 -0.019916564 -0.30428782 0.3996116 -0.014969438 -0.35599267 -0.06864786 0.31274265
0.031799942 -0.18597652 -0.05013916 -0.3058424 -0.25575307 0.34281588 -0.3746063 0.11299187
-0.10365936 0.16110373 0.32480568 0.32437438 0.02305016 -0.015516311 0.34116745 -0.18342963
-0.016122997 -0.06192398 -0.30595696 0.10557777 0.123325765 -0.0844948 -0.06748417 -0.21533129
0.4047079 0.34116626 0.26748884 0.18395895 0.27375525 -0.29121852 0.21539491 -0.12822765
0.35963166 0.17523521 -0.34723023 0.35600233 0.18675494 -0.19363627 -0.18931173 -0.1758607
0.035000145 -0.159585 -0.30157804 -0.18248004 -0.17937918 -0.37890178 0.06440744 0.27727878
-0.38867784 -0.23720466 -0.10074523 -0.40624526 -0.055360854 -0.3640066 0.30302465 0.3109631
0.1348381 0.0038973987 0.084089845 0.16007066 -0.13415697 0.0032059252 0.3363601 -0.35228884
0.31949896 0.12367284 0.38704425 0.010051638 -0.20697989 0.3271773 -0.20842393 -0.028183728

main_model.InputLayer.bias f4 [256]
00000000: 047d 1a3e a4e5 28be 9037 123e 902e 02be
00000010: fd66 2bbe 0816 053e cb8e 8fbe 3859 1abe
00000020: 6d41 b5be a9ae 96be 382e 2c3e de3f 96be
00000030: 803e 5f3b 3a6a 86be 0002 f7bb 37f5 c3be
00000040: d2a5 88be b068 873d 867d ba3e 002d a53a
00000050: 18c9 983e 10c1 a0bc 18b6 b4be 9a4b a83e
00000060: 8abd b13e 0085 e2bc 2c1f 913e 7767 80be
00000070: 8cbc 90be e8cc 073e 6c12 b2be 415b c0be
00000080: 0069 0dbc 0c21 c33e 4f5b 3bbe 7ce3 8c3e
00000090: 0876 683e f0fd 58be 8cc2 b93e 4694 a23e
000000a0: c46f 22be 2e0b 31be 08f9 89be 74bf 60be
000000b0: d42f 2e3e 08e5 10bd 7cb5 babd 789f 3f3e
000000c0: 6a5b 8c3e fc71 963e 27d1 c1be 000a 0c3a
000000d0: 0009 0d3e 5b7c 7dbe d86b 7f3d 7c41 1e3e
000000e0: 9e5e 3ebe 4478 c23e 9883 8ebd d4b2 cabd
000000f0: 82e2 3dbe f0f6 b6bc f1bd 31be 785a 5e3d
00000100: 909d 863e d817 c83e 853b 2cbe 0ca4 9a3e
00000110: 660f ba3e 6187 42be 6e44 ca3e 5c22 8e3d
00000120: 087a 5fbe e439 0b3e f80b b4be 304a b13d
00000130: 5c4a edbd 802a 7e3e 769a ce3e 8cf0 883e
00000140: be5f 17be 120d af3e 8460 943e 5c67 5d3e
00000150: b647 c2be 2cad 353e fa6c a2be 568d 66be
00000160: 947a 7b3e 989d 293e e860 c53d 0cef 10be
00000170: 7c5b 9a3e 9984 c6be 96f1 9e3e b871 373e
00000180: 80ac 76bc e4e8 57be 3b14 58be de86 35be
00000190: 016c bfbe 6429 953e eee3 a73e 9651 16be
000001a0: 46d3 43be 4080 423c 40b6 0bbc cc76 a5bd
000001b0: da2b cfbe 11b4 67be d708 c0be 680a a33e
000001c0: 1872 d83d 5ab9 79be 780a 99bd c0c9 9bbc
000001d0: de4f 23be 2063 f4bc 71f3 b0be 6068 7e3e
000001e0: 9a79 88be c0a3 f73b 4273 59be 9c4f febd
000001f0: 30bb 243d 40d1 81bd b147 c9be 217f 60be
00000200: 00d9 6dbd 4c0f 983e cc4a 0b3e 009c 1cbc
00000210: 6071 33bd c8ee 4b3e 9ac2 8ebe 846d 0bbe
00000220: 3c19 a2be d013 a23d 3640 babe f088 81bd
00000230: 7d36 a4be e880 b73e 20ab 133d 4097 583c
00000240: 0ce1 c63e 30d1 f6bc c0e1 21bc b022 d03d
00000250: e040 9f3c 1e9b 84be 2bf5 88be 38fa 5abd
00000260: 08a7 243e 7495 873e 3919 7abe d81f 4dbe
00000270: 6867 97bd e028 92bd 0c5d 5c3e fc15 81bd
00000280: 30cc 193e 38b9 20be 00d4 98bb d470 bebd
00000290: c09d 833c c16a c8be b87d 763d 6eb3 c43e
000002a0: c065 f9bd ecce a0be 4457 873d 6e60 bd3e
000002b0: 4073 adbd 2b01 54be e8b9 5d3e 0423 be3e
000002c0: 294a 80be 4b30 74be 7854 f63d 3c43 443e
000002d0: 70c4 94bc 0278 993e 70c2 b73e 4336 cebe
000002e0: 1800 38bd 0047 9ebe e893 06be 4827 1b3d
000002f0: 5026 8a3e 3832 58bd 403f 133e 88af a0bd
00000300: c43e 33be d0cc dcbd ae64 07be b4ab 3d3e
00000310: 9817 11bd f8a3 5dbd 4289 38be c49b 353e
00000320: c4f4 853e 429e 1cbe 6015 2e3e 86b4 cfbe
00000330: b0d5 0b3e 26e6 89be 80f1 36bb 5cea 363e
00000340: 6458 433e f074 c33d a8b7 1a3e 88c6 093e
00000350: 2efa 0dbe 54de 393e 5c5f 3a3e 1053 f63d
00000360: 18e4 503e 4df1 a9be 30ee 663d b476 14be
00000370: dce5 b9bd c47b b83e d880 4b3e 4d6c cbbe
00000380: bc24 173e 93c5 34be 3cee 3cbe 0090 40bc
00000390: 68cd 0b3d 5c14 8abd 04d0 2f3e 1831 6c3d
000003a0: 58b9 bd3d 1011 cabc c07f cbbc e46a cd3e
000003b0: 9cbb a7bd f66c cb3e ecba 9b3e 6842 51be
000003c0: 1834 af3d acf5 21be b6aa d0be 8e5f adbe
000003d0: 6885 a1bd 5696 85be 58f4 70bd a89d 983e
000003e0: c4ff c7be 0c12 123e 01ef cbbe ad27 4ebe
000003f0: a44f 26be 8013 c93b 7d01 38be c906 b9be
0.15086752 -0.16493851 0.14279008 -0.12713075 -0.16738506 0.12996686 -0.2803863 -0.15073097
-0.35401478 -0.2943013 0.16814506 -0.29345602 0.0034064353 -0.2625292 -0.00753808 -0.38273022
-0.2668901 0.066117644 0.36423892 0.0012601912 0.29840922 -0.01962331 -0.35295177 0.3287018
0.3471492 -0.02765131 0.28344095 -0.25078937 -0.2826885 0.1326176 -0.3477968 -0.3756962
-0.008630991 0.3811115 -0.1829655 0.27517307 0.22701275 -0.2119062 0.3628124 0.3175375
-0.15862948 -0.17289421 -0.26947808 -0.21948034 0.17010432 -0.03537467 -0.09116647 0.18713176
0.27413493 0.29383838 -0.37854883 0.0005342066 0.13772964 -0.24754469 0.062358707 0.15454668
-0.18590781 0.3798238 -0.06958693 -0.0989739 -0.18543437 -0.022334546 -0.17357613 0.054285496
0.26292086 0.3908069 -0.1681958 0.30203283 0.36339873 -0.18996955 0.39505333 0.06940147
-0.21823895 0.13596302 -0.3516538 0.08656728 -0.115864486 0.248209 0.4035222 0.26746023
-0.14782616 0.3418966 0.28979886 0.2162146 -0.37945336 0.17741841 -0.31723768 -0.22514853
0.24558479 0.16564023 0.09637624 -0.14153689 0.30147922 -0.3877304 0.3104369 0.17914474
-0.015055776 -0.21084934 -0.21101467 -0.17727229 -0.37387088 0.2913314 0.32791084 -0.1467956
-0.19123563 0.0118713975 -0.0085273385 -0.08079299 -0.40463144 -0.22627284 -0.37506744 0.31843877
0.10568637 -0.24387112 -0.074727 -0.0190171 -0.15948436 -0.029832423 -0.3456073 0.24844503
-0.26655275 0.0075573623 -0.21235374 -0.12417528 0.04021758 -0.063387394 -0.3931251 -0.21923496
-0.058068275 0.2969917 0.13602751 -0.009558678 -0.043809295 0.19915307 -0.27882844 -0.13615996
-0.31659877 0.07913935 -0.36377114 -0.06324947 -0.3207282 0.35840535 0.03605187 0.013219655
0.38843572 -0.030129045 -0.009880483 0.10162866 0.019440114 -0.25899595 -0.26749548 -0.053461283
0.16079342 0.2648121 -0.24423684 -0.20031679 -0.0739277 -0.071367025 0.2151987 -0.06303021
0.15019298 -0.15695655 -0.0046639442 -0.09298864 0.016066432 -0.39143947 0.06017849 0.38418144
-0.121776104 -0.3140787 0.066084415 0.36987633 -0.08469248 -0.2070357 0.21652949 0.3713609
-0.2505658 -0.23846547 0.1202783 0.19166273 -0.018160075 0.2997437 0.35890532 -0.40275773
-0.044921964 -0.30913544 -0.1314236 0.03787926 0.26982355 -0.052782267 0.14379597 -0.0784598
-0.17504412 -0.107812524 -0.13222 0.18522531 -0.03542289 -0.05411145 -0.1802111 0.17735201
0.26163304 -0.15294746 0.17000341 -0.40567416 0.13655734 -0.26933402 -0.0027914941 0.17862839
0.19076687 0.095437884 0.15109122 0.1345464 -0.13864967 0.18151218 0.18200439 0.12027562
0.20399511 -0.3319191 0.056379497 -0.14498407 -0.09077045 0.36031926 0.19873369 -0.39731064
0.14760107 -0.17653494 -0.18450254 -0.011753082 0.034131438 -0.067421645 0.17169195 0.057664007
0.09263867 -0.02466634 -0.02484119 0.40120614 -0.081900805 0.39731568 0.30416048 -0.20435488
0.08554858 -0.15816373 -0.40755242 -0.33861965 -0.07886773 -0.2609126 -0.058826774 0.29807782
-0.3906232 0.14264697 -0.39830783 -0.20132323 -0.16241318 0.006136358 -0.17969318 -0.3613799

main_model.hiddenlayer_0.weight f4 [256, 256]
00000000: 60dc 693c 686a 963c f025 f0bc 24c0 4d3d
00000010: 0854 5ebd 5a7f 61bd d08c 293c 8089 813a
00000020: 048c 54bd c016 6e3c 5c3f 5bbd 28be 423d
00000030: b815 d73c 88bf 383c c0c2 5c3c 9059 69bd
00000040: 0690 21bd 8cff f03c d2f1 7d3d 8ceb aa3c
00000050: 0011 713c 90e3 ecbb 80a1 f6bc 2273 4cbd
00000060: 008f f9bc 92cc 3a3d 2488 bf3c 2851 1fbd
00000070: f0f3 65bc d8a7 8cbc ee45 24bd a0d0 7bbd
00000080: f68c 33bd 54f7 b93c 9851 e8bc 8631 313d
00000090: d0aa d8bc a868 73bd 3065 b8bb a4ee b2bc
000000a0: c663 3d3d 146e 19bd ecc5 513d cc1c b63c
000000b0: e0bb dabc 3c9e 06bd 5e7c 123d d252 5d3d
000000c0: 082f cd3c a015 57bc acb1 76bd 7482 55bd
000000d0: 0048 83b9 80df 64bd 6e5c 143d de70 55bd
000000e0: 2c48 0fbd 4651 1e3d 2097 79bd d62c 043d
000000f0: 18f3 cabc 20d5 55bb a053 6c3b 4468 b63c
00000100: dcf9 093d 8ab7 7f3d 409a 883a e8de 173d
00000110: e02d 51bc 2cf1 2abd 8038 57bc 6255 3fbd
00000120: 326a 7e3d 22ee 4a3d 10a6 183d a881 3b3d
00000130: 48ae 5bbc 7648 763d 3870 1fbc c4df f4bc
00000140: f83c 183d 70d1 61bc a00c 60bc c00d b03b
00000150: defe 423d 2c52 91bc d0e4 cf3b a037 30bc
00000160: d80d f2bc 8eec 63bd b2ad 2cbd 643b ed3c
00000170: a0f7 bebc f818 923c a44a e03c 9a5e 50bd
00000180: 8841 3e3d 50e3 7fbc 9a75 3dbd ec04 0ebd
00000190: f881 3c3d 0cb3 c1bc 58f7 4e3c 74aa 913c
000001a0: 96fb 1abd 9efe 7fbd 8831 6a3c e44c 3e3d
000001b0: b693 443d f0ec 143c c061 1a3c 0c72 fd3c
000001c0: c883 b73c cccf 14bd 7a37 563d e437 0f3d
000001d0: d6cb 39bd aaf1 15bd b014 15bc 14af 763d
000001e0: 8ad3 45bd 402d 913a 6080 9dbb 8078 6a3a
000001f0: 0058 693d e8cc dbbc 00e3 b339 fe8d 09bd
00000200: 1213 02bd a41a 803c 6835 eebc a054 573d
00000210: c869 c8bc 4ca4 b9bc 5aef 35bd 04b9 b1bc
00000220: c056 9cba 8049 443c 6efe 71bd c859 45bc
00000230: c0f3 583b 104d 363d c061 b23a f082 3cbd
00000240: 60fd 5a3c 3816 813c 707d 77bc 40e3 fd3a
00000250: 74d3 acbc 804b 753a 4880 69bd 2058 23bc
00000260: 8c95 49bd 6014 b13c fc72 6d3d 5c40 e2bc
00000270: 10df 00bd e05d 0fbb d07d 203c a01c e73b
00000280: 9a57 3bbd 0823 61bd f0d4 5b3c 34cb a8bc
00000290: 0071 c1bb a857 133c b082 3cbc 6496 5e3d
000002a0: d64b 193d 04e6 07bd 3e8c 1d3d e040 90bb
000002b0: 6207 3a3d 6063 2bbb a0c2 6dbc 007b 47ba
000002c0: 5644 323d f4b8 d43c c092 2f3b 6e2e 49bd
000002d0: 6419 31bd 6cd2 6ebd 7a24 203d b872 fb3c
000002e0: 1609 083d 903d 333d 8058 ff3c 9a37 4e3d
000002f0: a2c3 293d 7c4f f53c a073 7abd 4060 893c
00000300: 2086 a43c c8f0 9ebc 609a 20bb bc61 66bd
00000310: 20fe 663d 7021 b03c 0243 413d a06d 8e3c
00000320: 847d 603d 78f5 99bc b805 e93c 0440 a3bc
00000330: 5069 703d bca4 453d 7c1c c3bc b40a d6bc
00000340: 5c78 0abd 4012 4cbc 14c2 4f3d 74d9 b4bc
00000350: fae2 78bd fcbf 55bd e0e7 44bc 140e b2bc
00000360: d84b a8bc 4806 0bbc f425 a1bc d45e 883c
00000370: f454 54bd f059 483d 0451 723d a207 71bd
00000380: 6a06 5d3d c6b2 43bd 74a8 0cbd 802b 603a
00000390: 48d4 b43c 28cf 703d 967d 0b3d 98e0 7fbc
000003a0: a41a d8bc 3c0c fabc 2a69 513d 5021 dc3b
000003b0: 60f4 093c 9a1b 4fbd 44d7 e8bc 9081 9dbc
000003c0: ccb0 2e3d ee2e 103d 60ad 513b 809e d4bc
000003d0: 88f1 7d3d 327b 383d 20b8 543b d2e3 3e3d
000003e0: 141a b6bc 0028 eb3a 1042 b13c 4abd 5e3d
000003f0: 8805 253d 0435 a13c e406 f8bc bae2 3a3d
0.014273733 0.018361285 -0.029314965 0.050232068 -0.054279357 -0.055053093 0.010348514 0.0009882897
-0.05189134 0.014531791 -0.05352722 0.04754463 0.026255473 0.011276133 0.013474166 -0.05697018
-0.039443992 0.02941873 0.061998196 0.02086427 0.014713526 -0.007229276 -0.030106306 -0.049914487
-0.030463696 0.04560525 0.023380347 -0.038895756 -0.01403521 -0.017169878 -0.040105753 -0.061478257
-0.043835603 0.022700943 -0.02835922 0.04326012 -0.026448637 -0.05942598 -0.005627297 -0.021842308
0.04623773 -0.037458494 0.051214144 0.022230528 -0.026700914 -0.032865748 0.035763137 0.05403406
0.02504684 -0.013127714 -0.060228035 -0.052126363 -0.0002503991 -0.05587721 0.03622096 -0.05210959
-0.034980938 0.038651727 -0.06093514 0.03226932 -0.02477412 -0.0032628253 0.0036060587 0.022266515
0.03368555 0.062430896 0.0010421947 0.037077814 -0.012767285 -0.041733906 -0.013136029 -0.046712287
0.062112994 0.049543507 0.037267745 0.045777947 -0.013408251 0.060127698 -0.009731345 -0.029891856
0.03716752 -0.013782844 -0.013674885 0.005372733 0.04760634 -0.017739378 0.0063444152 -0.0107554495
-0.029547617 -0.055645518 -0.042157836 0.028958984 -0.023311436 0.017834172 0.027379341 -0.05087147
0.046449214 -0.01561816 -0.04625473 -0.034672663 0.046022385 -0.023644947 0.0126322135 0.017781474
-0.037837587 -0.06249868 0.014294036 0.046460047 0.04799243 0.009089693 0.0094227195 0.03093817
0.022401705 -0.036330983 0.052299 0.03496541 -0.04536041 -0.036607422 -0.009099171 0.06022556
-0.048297442 0.0011076108 -0.0048065633 0.00089443475 0.05696869 -0.026831105 0.0003431067 -0.03358268
-0.031756468 0.015637703 -0.0290782 0.05257094 -0.024464503 -0.02266135 -0.044417717 -0.021694668
-0.0011927709 0.011980414 -0.059080534 -0.012045331 0.003310427 0.044507086 0.0013609454 -0.04602331
0.013366073 0.015757665 -0.01510559 0.0019370094 -0.021096922 0.00093572587 -0.057007104 -0.009969741
-0.049214885 0.02161616 0.057970986 -0.02761858 -0.03146273 -0.0021876022 0.009795621 0.007052973
-0.04573784 -0.05496505 0.0134174675 -0.020604707 -0.005903363 0.008993067 -0.011505768 0.054342642
0.03742584 -0.033178344 0.038463823 -0.004402265 0.045417197 -0.0026151761 -0.014511734 -0.0007609576
0.0435222 0.025967099 0.002679035 -0.049116544 -0.043237105 -0.058306143 0.039097287 0.03069435
0.03321179 0.043759882 0.03117013 0.050345995 0.041446336 0.029945128 -0.061145425 0.016769528
0.020083487 -0.019401923 -0.0024506077 -0.05624555 0.056394696 0.02150032 0.047183044 0.017386258
0.0548072 -0.018793806 0.02844511 -0.019927986 0.058694184 0.048252806 -0.023817293 -0.02612815
-0.03380619 -0.012455523 0.050722197 -0.022076346 -0.060763337 -0.052185044 -0.012018174 -0.021735229
-0.020543978 -0.008485384 -0.019671418 0.01664678 -0.05183883 0.048913896 0.059159294 -0.05884517
0.053961195 -0.047777914 -0.034340337 0.0008551404 0.02207388 0.05879131 0.034055315 -0.015617512
-0.02637989 -0.030523412 0.051125683 0.0067178383 0.00842008 -0.050563432 -0.02842296 -0.01922682
0.042649075 0.035201006 0.0031994209 -0.025954485 0.06199792 0.045039363 0.003245838 0.046603985
-0.022229232 0.0017940998 0.021637946 0.05437974 0.040288478 0.0196786 -0.030276723 0.04562638

main_model.hiddenlayer_0.bias f4 [256]
00000000: b8b9 f6bc e474 a7bc e0f3 953c c0e5 45bd
00000010: 008b 433c a010 403d be47 69bd d077 ca3b
00000020: 688e d13c 4c34 e53c 7000 e6bc 14a2 4f3d
00000030: 3476 413d 9085 ee3c 4c7d 043d 5024 86bc
00000040: dca8 dfbc 7416 9c3c 1c94 99bc cc82 e83c
00000050: 0828 273c 44b5 49bd 6e8f 43bd 70b3 cf3c
00000060: a021 bebb 8014 b23b 06b4 06bd e848 5fbc
00000070: 0829 7f3d 4a77 2dbd bc4c cabc 88b2 42bd
00000080: 34d9 69bd 8067 943c 9066 0c3d 1ce6 8d3c
00000090: 28ca 5bbc c0e7 c23b 447d d23c 980c e8bc
000000a0: 508f 243c 68d1 44bc 9a71 253d a077 7b3d
000000b0: d8d8 2cbd 02eb 1f3d a01f 0fbd aac6 2fbd
000000c0: 30b8 013d 08aa 92bc e0be c83b 68b5 81bc
000000d0: 388e 0bbc 0445 a5bc b037 2a3d 5c1a e93c
000000e0: 8461 293d 00ab 37bc 680b 613c 8459 e73c
000000f0: 3470 57bd 48f0 403d 00ee 5d3b e29c 563d
00000100: 2c79 753d 1882 37bd ceca 403d b8ec 22bc
00000110: 087c 39bd e05e 49bd f0a6 81bb 10c4 853b
00000120: 0a2d 503d 6a6c 4f3d f035 63bd 00a2 81bb
00000130: 40a1 05bd 006a 9339 1a18 19bd fef3 753d
00000140: 50a2 dabc 3657 533d 3c6d d8bc 183a 473d
00000150: 5cd0 8abc 4e4f 59bd 64bb 62bd 6e4f 3cbd
00000160: 302f 22bc 9e85 6abd 2a41 6ebd 164f 09bd
00000170: 888c 8a3c 8cda 1dbd acb4 60bd 669a 57bd
00000180: 18b8 583c d84f 733d 584b 46bc 76ae 213d
00000190: c0a2 853a b073 ba3b d09f 13bd badf 7bbd
000001a0: cce4 7dbd bc11 e63c 7026 7a3d 98c1 63bc
000001b0: 8ee6 243d 3073 bebc 9eb6 78bd ee6f 6fbd
000001c0: d2e4 0c3d 081d b1bc b8f2 063c bc52 d3bc
000001d0: 5658 1abd fa6a 253d c843 16bd 649f 103d
000001e0: b4a1 e23c 54be 21bd a812 45bd 805e 8bbc
000001f0: c0b4 e7bc 70d9 a8bb 28dd fbbc 54db 913c
00000200: 5c4c c93c 2821 aabc 4e18 5f3d a862 073c
00000210: a017 fabc fcf2 023d fa27 6fbd 907e 02bd
00000220: 609b 6f3d b0c9 e2bb e0b3 1dbc f2cf 44bd
00000230: f468 ef3c 7c07 8e3c 003b 15bc d0ab 803b
00000240: 705e b5bc d415 e13c d6d2 293d 4090 543c
00000250: 1add 44bd a801 31bc d4d6 213d d075 e2bb
00000260: 7422 903c e8fc 71bd 1e22 60bd 7c32 24bd
00000270: 6058 d1bb 42a9 613d 8ef6 723d d029 ce3b
00000280: 8215 65bd e06f 2c3c 7812 a63c 8a7c 2a3d
00000290: 8eb9 71bd 3ee2 3ebd d8b5 233c ecba b3bc
000002a0: 40fb 573b 249c dc3c 9823 60bd 083f ba3c
000002b0: d0e7 4dbc c4ae 8d3c 7819 11bd 2e85 5c3d
000002c0: 2029 efbb 5032 47bc 6c54 d4bc 2cc3 84bc
000002d0: 0a9e 3a3d e296 053d 0687 19bd eebb 1dbd
000002e0: aada 093d 607b 4fbb ec6f cdbc 0ed6 1b3d
000002f0: bab0 57bd 00ff d43c 065d 27bd 080b ba3c
00000300: a08d 17bc 6e7b 40bd a456 3dbd 9286 5bbd
00000310: 546a f23c 76a5 043d 9097 813c 48bd c73c
00000320: 0811 763d 98cf 37bd 9a49 193d 40ff dcba
00000330: 5413 36bd 389b 03bd 64ed 9ebc 928a 323d
00000340: 1e05 16bd f2ca 21bd 40b6 943a 402f d23a
00000350: b893 843c fcc8 153d 4879 903c bec7 193d
00000360: b6f1 293d b09d ee3c 9841 f93c 10e4 683d
00000370: 8027 ef3b 3e79 533d d485 cdbc 20be 7e3b
00000380: a4ef c93c 9868 0e3d e485 d5bc 2a8a 4dbd
00000390: c01b 523b 7812 34bd 3049 43bc c413 923c
000003a0: e868 f23c 98a1 ba3c 4289 6abd 489d 0b3d
000003b0: 2cd3 18bd 2476 cb3c a0b7 7e3c 26c3 333d
000003c0: 28aa 6fbd 1a52 783d 249e 5abd 38f6 2a3c
000003d0: 383d ff3c c80c 353d 9457 38bd 6eef 5ebd
000003e0: 986a 3abc e877 5f3c e64d 24bd 1c68 f93c
000003f0: 8031 a1bc dae7 2e3d a8ca 643c 60e1 babb
-0.030117854 -0.02044148 0.018304765 -0.04831481 0.011934996 0.046890855 -0.056953184 0.0061788335
0.0255806 0.027979039 -0.02807638 0.05069168 0.047231868 0.029116422 0.032346055 -0.016374737
-0.027302198 0.019053675 -0.018747382 0.028382681 0.010202415 -0.049245134 -0.047744207 0.025354117
-0.0058023483 0.0054345727 -0.032886527 -0.013628222 0.06229499 -0.04235009 -0.024694793 -0.047533542
-0.057091907 0.018115759 0.0342775 0.017321639 -0.013414897 0.005948037 0.025694497 -0.028326318
0.010043934 -0.012012817 0.040391542 0.06139338 -0.042198986 0.03904248 -0.03494227 -0.04291407
0.031669796 -0.017903343 0.0061262697 -0.015833572 -0.008517794 -0.02017451 0.041557014 0.028454952
0.041352764 -0.011210203 0.01373563 0.028240927 -0.05259724 0.04710415 0.0033863783 0.05239571
0.05993001 -0.0448018 0.04706841 -0.009944133 -0.0452843 -0.049162745 -0.003956668 0.0040822104
0.050824203 0.0506405 -0.05547136 -0.0039560795 -0.032624483 0.00028117 -0.0373765 0.060047142
-0.026688725 0.051596843 -0.026419275 0.048639387 -0.016945057 -0.053054146 -0.05535449 -0.045974188
-0.009898946 -0.057256334 -0.058167614 -0.033522688 0.016912714 -0.0385385 -0.054859802 -0.05263748
0.013227485 0.059402317 -0.012102924 0.03947302 0.0010195598 0.0056900606 -0.03604108 -0.06149266
-0.061985776 0.028084628 0.061071813 -0.013901137 0.040258937 -0.023248285 -0.060721032 -0.058456354
0.034397908 -0.021620288 0.00823658 -0.025796287 -0.0376819 0.040385224 -0.036685735 0.035308257
0.027664997 -0.03948815 -0.048113495 -0.017012835 -0.02828443 -0.0051528737 -0.030745104 0.01780478
0.024572544 -0.020767763 0.054466538 0.008263268 -0.030528843 0.03197001 -0.058387734 -0.03185898
0.058497787 -0.0069210157 -0.009625405 -0.048049875 0.02922485 0.017337553 -0.009108305 0.0039267316
-0.022139758 0.027476229 0.041460834 0.012973845 -0.04806242 -0.010803618 0.039511517 -0.006911017
0.017594554 -0.05907908 -0.054720037 -0.04008721 -0.006388709 0.055093057 0.059317164 0.0062916055
-0.055928715 0.01052472 0.020272478 0.041622676 -0.05901485 -0.04660248 0.009992085 -0.021939717
0.0032956153 0.026929922 -0.054721445 0.022735134 -0.012567475 0.017295249 -0.03542468 0.053837948
-0.0072986037 -0.0121579915 -0.025919162 -0.016206346 0.045560874 0.032614596 -0.037482284 -0.0385093
0.0336558 -0.003165923 -0.025077783 0.038045935 -0.052658774 0.0260005 -0.0408602 0.022710338
-0.009250075 -0.04699271 -0.046225205 -0.053595133 0.029591717 0.03238436 0.015819341 0.024382249
0.060074836 -0.04487571 0.037423708 -0.0016860738 -0.044452026 -0.03213045 -0.019400306 0.043589182
-0.036625974 -0.039500184 0.0011345819 0.001603581 0.016183719 0.036568627 0.017635956 0.037544005
0.04149028 0.029127926 0.030426785 0.056858122 0.00729841 0.051629297 -0.025088228 0.0038870648
0.024650402 0.034767717 -0.02606482 -0.05018059 0.0032059997 -0.043962926 -0.011919305 0.01783169
0.029591039 0.022782132 -0.057259806 0.034085542 -0.037310764 0.024836607 0.015546709 0.04388728
-0.058511883 0.060625173 -0.05337347 0.01043468 0.031157121 0.044201642 -0.045005396 -0.054427557
-0.011377953 0.013639428 -0.040113352 0.030445151 -0.019676924 0.04270158 0.013964333 -0.0057031363

main_model.OutputLayer.weight f4 [3, 256]
00000000: aa63 253d 3697 5ebd c467 54bd 34e7 233d
00000010: 1ea7 1b3d 28a0 753d 6417 223d 1e66 2a3d
00000020: 34e0 fb3c 88be febc c089 cebb e099 a7bc
00000030: 386d 47bc 7825 1a3c 0ab9 1cbd d47e 743d
00000040: 5049 233d 5a1e 00bd dcc3 c93c 42bc 513d
00000050: fc16 88bc 207d cabc 4847 e6bc 321a 77bd
00000060: c423 07bd d62b 473d b20b 773d 70af 7bbc
00000070: 5652 093d a87f 233d e05c 37bb e0c1 0abc
00000080: 344e 9e3c 4e05 393d eeac 123d d0cf f6bc
00000090: 8874 7bbd 46af 04bd e01b 1ebb 8277 1abd
000000a0: 1ea8 713d 6658 3ebd f023 b23c 8068 e2bb
000000b0: 10f9 d43c d0a2 0a3d 781d 093c 00f1 763b
000000c0: 0070 26bc 9601 43bd 28e6 f73c f0de 7cbd
000000d0: 7ad6 20bd e889 1a3c fc7f 3f3d 2484 a8bc
000000e0: e6e5 71bd 40da 3bbd 1afe 5cbd 8c79 7bbd
000000f0: 582a 233c 9cab b63c 56d4 753d 40c9 e7bc
00000100: 00d7 b9b9 5445 c63c 1033 093d 3c04 42bd
00000110: 9aa9 42bd e4eb d2bc 20ba c93c 5656 17bd
00000120: 40a6 cdbb 80ac edba f03d 56bc ccc7 c4bc
00000130: 70f9 143c 1479 6fbd 709f 753d 7a2a 7abd
00000140: c0a2 df3a f0d8 6bbc 40ad f63b 7a9d 2ebd
00000150: e086 503d ae44 37bd 00a0 87ba 96f5 763d
00000160: 4487 143d 7025 3e3c 1a3b 723d 8c57 233d
00000170: a6c5 173d a825 bfbc 48a8 46bc b237 2e3d
00000180: fc07 d23c 8012 f13a 5e8d 3dbd f417 be3c
00000190: 6cd7 4b3d 845f e93c ece7 6abd bea6 793d
000001a0: eecc 2d3d 400a 4e3c 508f a53c 98b1 0d3d
000001b0: dae6 463d 5019 473c 38aa e7bc cce2 2fbd
000001c0: f826 5b3d d0bc 67bc 462b 46bd 8ecb 0cbd
000001d0: 0af3 583d b0a7 283d 5059 0c3d 6a2a 31bd
000001e0: 6699 123d 6011 29bc 008c 7039 90a3 07bd
000001f0: 58ee 3f3d 8411 b0bc 4257 233d aad6 063d
00000200: cc4a 81bc 2239 42bd 6236 033d 846b 153d
00000210: 048b 8ebc 00da 3cbd dc03 5ebd 404d c43b
00000220: 10b8 f7bc 2c49 353d a02a 6cbc 4026 39bc
00000230: a63b 65bd b00a c03b 488f 6abd c083 35bd
00000240: e0b0 b73c 78fd 00bd b892 31bc 0a39 08bd
00000250: f4c4 f5bc 24c4 79bd e0c3 6ebd 7097 f6bb
00000260: 7828 6cbd e8ee 5ebc c62a 21bd da6e 31bd
00000270: 56cb 5ebd fc18 493d f0d8 093d 5429 763d
00000280: c8e2 f1bc 1a95 013d 9ab2 18bd cc2f 553d
00000290: 407f 2fbc a428 b43c 2053 173c a24e 093d
000002a0: 78ac 213d 809c 6fbc 50e3 edbc 5a51 683d
000002b0: c86b 4b3c 7860 5b3c 78ed 123c 8e4d 253d
000002c0: 3a90 213d 2e87 0f3d 104e 0abd 54db 14bd
000002d0: d067 04bc d0b9 f23b 3083 b23c 9e32 393d
000002e0: f8e0 1cbd 683d 95bc d63f 483d 704f e03b
000002f0: 3a20 553d d04a bd3b 3c12 253d 02fc 46bd
00000300: cc94 09bd a8cc bb3c 84a5 5b3d e8f1 de3c
00000310: e88c c6bc da5a 4fbd f8d9 75bc ac27 39bd
00000320: 60c6 6b3c eed1 75bd 2e6f 60bd 7829 a53c
00000330: faf8 3d3d 8e5c 57bd bc2c bbbc 9c59 16bd
00000340: 3478 d63c e035 183b 62ff 00bd e648 6b3d
00000350: f4cd dbbc 7ae9 43bd 64dd 153d 604d 35bd
00000360: 3087 5dbc d086 d93c 1056 c5bc e0b0 ebbc
00000370: c04a a03a 9e2b 173d 100d 013c 3837 443d
00000380: c08e e33a 7476 55bd c065 d2bc d40d 68bd
00000390: 0012 9abb 78cf 413d e4f3 033d d89c c5bc
000003a0: 88c8 2cbd 8205 1abd a09e cfbb bc74 1cbd
000003b0: 2cd3 e4bc 6c56 bfbc 6031 dbbc b85b 74bd
000003c0: 5a73 5e3d a065 20bd 4665 013d 7811 483d
000003d0: 000f 623c f07f 733d 5c07 873c 06ca 54bd
000003e0: e0e1 53bc 3662 4ebd 205f 3c3d 50fc 803b
000003f0: 787d 143c 70f4 1dbc 22ce 1c3d 8077 0b3b
0.04037825 -0.054343425 -0.05185677 0.040015414 0.038001172 0.05996719 0.03957309 0.041601293
0.030746557 -0.031096712 -0.006303042 -0.020459116 -0.012172036 0.009408347 -0.038262405 0.059691265
0.039864838 -0.031278946 0.024629526 0.051204927 -0.016612522 -0.024717867 -0.028110161 -0.060327716
-0.032993093 0.04862579 0.060313888 -0.015361652 0.033525787 0.039916664 -0.0027978942 -0.008469075
0.0193244 0.045171075 0.03580945 -0.03012839 -0.06139043 -0.032393716 -0.0024125502 -0.037711628
0.05899822 -0.046471022 0.021745652 -0.00690943 0.025997669 0.033846676 0.008368842 0.0037680268
-0.010158539 -0.047608934 0.030261114 -0.061736047 -0.03926704 0.0094322935 0.046752915 -0.020570822
-0.05905714 -0.045862436 -0.053953268 -0.061395213 0.009958826 0.022298627 0.060016952 -0.028294206
-0.00035446137 0.02420298 0.033495963 -0.04736732 -0.047525026 -0.025747247 0.024624884 -0.03694757
-0.006275922 -0.0018133074 -0.0130762905 -0.024021052 0.009092674 -0.05846508 0.059966505 -0.061075665
0.0017062053 -0.014394984 0.007527977 -0.04263065 0.050909877 -0.044743232 -0.0010347366 0.060292803
0.03626181 0.0116056055 0.059138395 0.039878413 0.037053727 -0.023333386 -0.012125082 0.042533584
0.025638573 0.0018392354 -0.046277396 0.023204781 0.04976599 0.028487928 -0.057350084 0.060950033
0.042431764 0.012575686 0.020209938 0.034593195 0.04856 0.012152031 -0.028279409 -0.0429409
0.05350396 -0.0141441375 -0.048381113 -0.034373812 0.052966155 0.041175544 0.034264863 -0.04325334
0.035790823 -0.010319084 0.00022940338 -0.03311497 0.04685816 -0.021492727 0.039878137 0.032919563
-0.015782736 -0.047417767 0.032034285 0.036479488 -0.017400272 -0.04610634 -0.0542029 0.005990654
-0.030239135 0.044259235 -0.0144144595 -0.011300623 -0.05596509 0.005860649 -0.05726555 -0.0443151
0.022423208 -0.031491727 -0.010838203 -0.03325752 -0.030001141 -0.06097807 -0.05829227 -0.007525377
-0.05765578 -0.013606764 -0.039347433 -0.043318607 -0.054393135 0.049096093 0.033654153 0.060098007
-0.029527083 0.031636335 -0.037279703 0.052047536 -0.010711491 0.021992035 0.009236127 0.033522256
0.03947112 -0.014624715 -0.029039055 0.056718208 0.012415834 0.013389699 0.00896775 0.040357165
0.039444186 0.035041027 -0.033765852 -0.03634198 -0.008081391 0.0074074045 0.02179107 0.045214288
-0.038300484 -0.018217757 0.048889004 0.006845407 0.052032687 0.0057767406 0.040300593 -0.048580177
-0.03358917 0.022924736 0.053624645 0.02721496 -0.024237111 -0.050623752 -0.015005581 -0.04520385
0.014390558 -0.060014658 -0.05479353 0.020161375 0.04638002 -0.0525785 -0.02284848 -0.036706552
0.026180364 0.0023225471 -0.031493552 0.05744257 -0.026831605 -0.047830082 0.036588088 -0.044263244
-0.013521001 0.026553541 -0.02408889 -0.028770864 0.0012229308 0.03690683 0.0078766495 0.047904223
0.0017361268 -0.05211492 -0.025683284 -0.056653813 -0.004701853 0.047317 0.032215014 -0.02412264
-0.04218343 -0.03760291 -0.0063360482 -0.038197264 -0.027932726 -0.023356639 -0.026756942 -0.059657782
0.054309227 -0.039159417 0.031590723 0.048844784 0.013797522 0.059448183 0.016483001 -0.051950477
-0.012932271 -0.05038663 0.045989156 0.003936328 0.009063117 -0.009640798 0.03828252 0.0021280944

main_model.OutputLayer.bias f4 [3]
00000000: bc36 e2bc 1003 3ebd 60f2 89bc
-0.02761399 -0.04638964 -0.016839206
