DQN_incomplete/11/save/main_model_000003.pth (torch_old, 274770 bytes, 6 tensors)

main_model.InputLayer.weight f4 [256, 6]
000000 53 a4 c0 3b 51 e3 e1 3c 82 f7 be be d5 32 93 3e
       0.005878964 0.027574213 -0.37298208 0.2874972
000010 53 5c 22 3e f5 2c c7 3e 92 c7 8d 3e 02 7a 10 3e
       0.15855531 0.38901487 0.27691323 0.14109042
000020 22 30 88 3e c9 73 ad 3e 3b f3 35 be c1 6d eb bd
       0.26599222 0.338774 -0.17768566 -0.11495543
000030 b4 11 d2 bd cc 19 9c 3d 88 19 52 bd 51 c9 25 be
       -0.10257283 0.07622108 -0.05129388 -0.16190077
000040 60 f7 d9 3d 7e df a4 be 0a 0a 84 3e ec 02 31 bd
       0.10642886 -0.3220176 0.2578891 -0.043215677
000050 74 cc 40 3e 84 7b 69 3e 49 cd 6c 3a 41 09 55 3e
       0.18827993 0.22801024 0.00090332754 0.20804311
000060 76 06 f2 38 63 38 73 3e 92 aa af 3e 3c b2 b4 3d
       0.00011540663 0.23751979 0.34309822 0.08823058
000070 b2 b4 a8 3e 95 ec 63 3d 39 08 c0 3d 5a b7 e4 be
       0.3295036 0.055645544 0.09376568 -0.44671136
000080 db 85 a7 be 2f 51 84 be 20 b3 80 3e e7 d7 c3 3e
       -0.3271931 -0.25843188 0.25136662 0.38250658
000090 91 42 98 be 60 aa 2a bd 80 73 c1 3d 20 bf b8 be
       -0.29738286 -0.04166639 0.09445858 -0.36083317
0000a0 24 eb 65 3e 98 d9 2d 3e 81 85 33 3e 0c 53 f5 3d
       0.2245298 0.16977537 0.17531396 0.119787306
0000b0 2e 05 c9 3e 73 f1 35 bc 63 49 c3 3e 96 1f 75 be
       0.39261764 -0.011104929 0.38141927 -0.2393783
0000c0 7d 71 3e 3c ba 13 95 3e da ab 4f 3e 82 9e cd be
       0.011623737 0.29116613 0.202804 -0.40159994
0000d0 fa 8c b1 3e 6e a0 31 be 70 09 36 3d 19 86 b9 be
       0.3467787 -0.17346355 0.044442594 -0.3623512
0000e0 f0 ae 8f bc d4 5f c3 be 80 8c ed 3d 1c 93 2e 3e
       -0.017539471 -0.3815905 0.11599064 0.17048305
0000f0 01 84 97 be f0 48 5b 3d 7c 8e b5 bd 64 89 ca bd
       -0.29592898 0.053536355 -0.08865067 -0.098894864
000100 80 95 fe 3d 5f 3b 81 be 3f 40 c7 3e 43 d3 b4 3e
       0.124308586 -0.2524061 0.38916203 0.3531743
000110 ad 27 d9 3a 87 9f 37 be d2 f7 34 be 0b 1a 09 3d
       0.001656761 -0.17931949 -0.17672661 0.033472102
000120 13 d5 87 bc 33 b9 ef bd 10 28 04 3e 24 06 d9 bd
       -0.016581094 -0.11705246 0.12905908 -0.10596874
000130 0f c9 0c 3e df e4 a0 be 2f cc c4 be 7a 36 3a be
       0.13748573 -0.31424615 -0.3843703 -0.18184844
000140 d0 d0 cf 3e a0 a4 8c bd 6e 94 b7 be b4 0a c7 bd
       0.40589 -0.06867337 -0.3585543 -0.09718838
000150 f2 1a 54 3e 80 9a a6 3e 9a 30 ae 3e 2e 4d 9d be
       0.20713404 0.3253975 0.34021455 -0.30722946
000160 24 54 51 be 3b 8d 0c be 60 54 21 3d fa f0 90 be
       -0.20442253 -0.1372575 0.039387107 -0.2830885
000170 70 5a 83 3d d4 0f 1a 3e 4c 46 cd be 62 eb 8a 3e
       0.06413734 0.150451 -0.40092695 0.27132708
000180 50 67 e9 3c 50 00 f6 bc ac ab a4 bd 24 d3 64 be
       0.028491646 -0.030029446 -0.08040556 -0.22346169
000190 f8 17 18 3d d0 6d 07 be d2 77 50 3e 3c b4 b2 be
       0.037132233 -0.13225484 0.20358208 -0.34903133
0001a0 52 e5 c1 bd b4 9c 48 3d 1c 67 5b 3d bc 45 a3 be
       -0.094675675 0.04897757 0.05356513 -0.3188914
0001b0 99 86 13 bd 97 73 39 be 56 ff fd 3d a9 03 c5 3e
       -0.036017034 -0.181105 0.12402217 0.38479355
0001c0 28 d0 dd bd 55 9e 7f 3e e0 4c 9d 3c 22 b9 ab be
       -0.10830718 0.24962743 0.019201696 -0.33539683
0001d0 56 c6 39 be 36 70 b6 be 6e 3a 84 3e 08 b9 14 3d
       -0.18142065 -0.35632485 0.25825828 0.036309272
0001e0 00 11 a5 3b 0e e2 9c 3e eb b1 c3 be 2a ad 97 be
       0.005037427 0.30641216 -0.38221678 -0.296243
0001f0 fa 9d 3c be 8a 86 c6 be c5 72 83 bd 40 3f 82 be
       -0.18419638 -0.3877452 -0.06418375 -0.2543888
000200 72 83 96 3e 92 ab 92 3d b5 dd 92 bd 27 8a b4 be
       0.2939716 0.07161631 -0.071711935 -0.35261652
000210 bc f6 5b be a8 09 4f 3e 00 ad b0 3b 44 04 8e 3d
       -0.2148084 0.20218527 0.005391717 0.06934407
000220 5c fa a9 be 94 42 46 3e f1 d9 bd 3c 37 d8 7a be
       -0.33198822 0.19361335 0.023175212 -0.24496542
000230 f1 ee f9 be f2 4c d6 3c 4b cd e2 3d 9e 33 bb 3d
       -0.4881511 0.026159737 0.11074313 0.091407046
000240 7a e0 9a be a5 b6 38 3e 1d d9 80 bd 42 58 9c be
       -0.30249387 0.18038423 -0.06291411 -0.30536085
000250 c5 67 35 3e 3f 89 16 be 76 be 22 be b8 05 92 be
       0.17715366 -0.14700793 -0.15892968 -0.28519988
000260 26 a5 25 3e bb f1 3a 3e 27 ee 7c bd c0 46 bd be
       0.1617628 0.18256275 -0.061750557 -0.3696804
000270 a7 c7 ac 3d ec b7 14 be 3a ac b9 be 50 cf 8b 3e
       0.08436518 -0.14523286 -0.3626421 0.27306604
000280 c4 39 b4 3e c7 c9 2a bd 69 bb c4 3e 70 2c c0 be
       0.35200322 -0.041696336 0.38424233 -0.37533903
000290 09 58 ce be 6f 49 ea 3d 1e 2c bb be 79 0c a4 be
       -0.4030154 0.114397876 -0.36557096 -0.32040766
0002a0 51 f4 b8 be 7b ff a7 3b 52 b9 87 3e ea d1 b4 3e
       -0.361239 0.005126891 0.26508576 0.35316402
0002b0 af 97 bb be d7 0d af be 01 4f 82 bc c7 17 07 3e
       -0.36639163 -0.34190246 -0.015906813 0.13192664
0002c0 14 9d 76 3e ec 29 96 3e 01 18 65 bd db b1 c7 3e
       0.24083358 0.2932886 -0.055931095 0.3900288
0002d0 a2 57 2c be c8 07 99 3c ce 34 64 3e 1c 24 80 3c
       -0.16830304 0.018680468 0.22285768 0.015642218
0002e0 72 96 4b 3e 70 47 a5 3d 72 7c 40 3e da d8 44 be
       0.19881609 0.08070266 0.18797472 -0.19223347
0002f0 fe bb 82 3e dd bf c8 3e 80 50 d5 be 0a 4a 94 be
       0.25534052 0.3920888 -0.4166298 -0.28962737
000300 76 2a b9 3e 3e d8 37 be c0 33 a3 bc a0 06 3e bd
       0.36165208 -0.17953584 -0.019922137 -0.046393037
000310 ea 62 bc be b8 94 96 bd b3 6d b1 bd 5b 40 26 3d
       -0.36794215 -0.073525846 -0.086635016 0.040588718
000320 ac a2 40 be 72 5a a9 3e e6 52 6e 3e 4a 9d 25 be
       -0.18812054 0.33076817 0.2327381 -0.16173282
000330 7a 11 bb 3e c0 46 9e 3d 78 36 fe 3d 84 fe c3 be
       0.3653677 0.07728338 0.12412733 -0.38280118
000340 91 71 bf be 3c 4c 6f be e4 ff af be ee 99 8b be
       -0.37391332 -0.23368925 -0.34374917 -0.27265877
000350 94 96 62 3e ca b5 23 be 1c 11 c4 3d aa fe bb bc
       0.22127753 -0.15987316 0.09573576 -0.022948582
000360 e8 87 97 3e b7 82 9a 3e 57 76 6f be 20 1e af 3e
       0.29595876 0.30177853 -0.23384987 0.3420267
000370 a9 db b1 3d c4 37 22 3e 2e f0 a2 3e c1 90 e2 3d
       0.08684475 0.15841585 0.31823868 0.11062766
000380 96 30 a5 3e 7a 6e 79 38 12 0f 22 3d 45 96 94 be
       0.3226363 5.9469116e-05 0.039565153 -0.29020897
000390 c2 7d 97 3d b2 e2 b5 bd 57 82 0e 3e 0f bd d6 3d
       0.07397033 -0.08881129 0.13916908 0.10485279
0003a0 e1 a3 bd 3e 6c 97 83 be 67 d9 84 3d 47 36 20 be
       0.37039092 -0.25701463 0.06486779 -0.15645705
0003b0 3b 63 1a 3e a4 93 37 3d af a2 87 bd 35 cf c6 be
       0.15076916 0.044818535 -0.06622826 -0.3882996
0003c0 1a 6b bd be fe ac ba be 40 b1 6d 3b c6 aa f7 bc
       -0.36995775 -0.36460108 0.003626898 -0.030232798
0003d0 e8 7f 6f 3e a0 fc 9e 3d b9 7e 8a 3d 6f 54 7d be
       0.23388636 0.07763028 0.06762452 -0.2473924
0003e0 b2 64 3f be 86 c2 06 be cd ba 43 3e 16 6d 0a 3d
       -0.18690756 -0.13160142 0.19114228 0.03379544
0003f0 28 8e 13 be 50 ae 98 bd 00 6c 82 3a 93 48 c8 be
       -0.14409697 -0.074551225 0.0009950399 -0.3911787

main_model.InputLayer.bias f4 [256]
000000 b2 06 fd 3d 47 5e c8 be 43 25 8a be 10 dc 97 be
       0.12354793 -0.39134428 -0.26981553 -0.29660082
000010 66 a8 6b be 8e 43 84 3e 3b 7d 0a 3f 07 06 43 3e
       -0.23013458 0.2583279 0.54097337 0.19045268
000020 f2 8d 5d 3d 46 ed 33 3e 03 5b a3 be f1 a7 a4 3e
       0.054090448 0.17570981 -0.31905374 0.3215938
000030 d1 b1 df bc e6 ca ab be 48 15 61 3e 00 dc a3 bc
       -0.02730647 -0.33553237 0.21980774 -0.020002365
000040 92 b7 4e be 80 72 9c 3e ac c6 ad bd 6c 54 6f 3e
       -0.20187214 0.30556107 -0.08485159 0.23372048
000050 7d b3 af 3e a1 f2 b1 3e fc 1c ca bd d0 ab a4 be
       0.34316626 0.34755424 -0.098688096 -0.32162333
000060 c4 b7 04 3f ee b4 78 be 23 42 91 3e ff 5c dc 3d
       0.51842904 -0.24287769 0.2837077 0.10759925
000070 c0 2a cd 3e 83 88 82 3e 85 b4 b0 be 5a b7 ed bd
       0.40071678 0.25494775 -0.34512725 -0.11607237
000080 b0 80 16 be 04 36 35 3e 48 c3 41 bd ec e2 7a 3d
       -0.14697528 0.17696387 -0.047305375 0.061251566
000090 35 36 a9 be de bd f2 3d 7c 95 34 3e 38 5f b8 be
       -0.3304917 0.118526205 0.17635149 -0.36010146
0000a0 33 2a 05 3e 01 bb 8f be 18 78 30 bd c5 22 32 bd
       0.13004379 -0.2807236 -0.04308328 -0.04349019
0000b0 1a a1 0e 3f 75 c3 94 3c 7d e6 83 bd 6a 5e 5c be
       0.5571457 0.018159607 -0.064404465 -0.21520391
0000c0 50 3a a3 3e e5 6c b4 be ac 11 f0 3d 30 48 c8 3e
       0.31880426 -0.3523933 0.11722121 0.39117575
0000d0 fa e4 00 be 6d 07 88 be 32 0d 08 3f 35 00 9a 3e
       -0.12587348 -0.26568165 0.53145134 0.30078283
0000e0 c3 91 05 3f 71 53 48 be cc 06 66 be 56 c0 90 3c
       0.5217554 -0.1956308 -0.2246353 0.017669838
0000f0 03 5e 55 3e 03 c2 b2 3e 0f 66 8f ba 1f 1c 42 3e
       0.20836644 0.34913644 -0.001094045 0.1895604
000100 84 a5 bd be cc 92 8e bd 70 ed 64 3e 74 a7 e9 3d
       -0.3704034 -0.06961593 0.223562 0.11408892
000110 06 6e f4 bd 54 6c 31 be 27 e6 a8 3e e3 07 4c bd
       -0.11935048 -0.1732648 0.32988092 -0.04981221
000120 b1 3f 91 bd 83 02 d4 3e c0 bb dc 3b f5 f8 ae 3e
       -0.07092226 0.41408166 0.0067362487 0.34174314
000130 60 7a b7 bd 74 28 e8 3e e3 ed 8e be 03 ae 9d 3e
       -0.08958888 0.45343363 -0.27915868 0.30796823
000140 6c 63 62 be 4b 94 5f 3e e1 a3 d2 bd 23 33 df 3e
       -0.22108239 0.21833913 -0.10285164 0.43593702
000150 04 a4 bd bd 46 ca 4f be 73 d5 c3 be a5 72 b1 3e
       -0.09259799 -0.20292005 -0.38248786 0.3465778
000160 53 5d 04 3f 8f d0 d5 be 60 96 8c bd ac d1 b4 3e
       0.517049 -0.4176068 -0.06864619 0.35316217
000170 1c ff e4 bd e1 4d 54 3e 21 d7 31 be ba be a0 be
       -0.11181471 0.20732833 -0.17367221 -0.31395513
000180 d0 65 21 be 70 80 97 3e 37 bb 08 3f 40 07 17 3f
       -0.15761495 0.29590178 0.5341067 0.5899544
000190 1f 93 cb be 36 a4 04 3e df 9e 78 3c 0d da ac 3e
       -0.39760682 0.12953267 0.015174597 0.3376011
0001a0 bc 18 74 be 4e f2 5f be 6f 06 de 3e 44 45 12 be
       -0.2383756 -0.21869776 0.43364283 -0.14284235
0001b0 7e 60 a3 be 9e ab bc be dd d1 81 be 1c 27 d5 bd
       -0.31909555 -0.36849684 -0.25355425 -0.1040785
0001c0 a7 c0 e5 bc 24 5b 5f 3e a1 80 e3 bc c1 19 c0 bd
       -0.028045965 0.21812111 -0.027771296 -0.09379912
0001d0 91 1d e7 3e ca e6 b9 be 3d a2 b6 be 4e fe b4 be
       0.45139745 -0.3630889 -0.35670653 -0.3535027
0001e0 41 7d a7 3d 58 60 49 3e fa 9e cf be 32 e5 55 3e
       0.08178187 0.19665658 -0.40550977 0.20888212
0001f0 49 54 c2 3e d8 84 05 3f 8a 11 84 be 01 41 51 3e
       0.3795493 0.5215583 -0.2579463 0.20434953
000200 84 5d 13 be bf f3 3d be 12 e7 8d be 3f 99 1d 3e
       -0.14391142 -0.18550013 -0.27715355 0.1539049
000210 88 08 28 be 50 ab 9f 3e 6e f5 0c 3f 2c ec e6 bd
       -0.16409504 0.3118539 0.55061996 -0.11275515
000220 fe b0 b6 3e 30 ed 18 be 43 17 95 be 01 09 89 be
       0.3568191 -0.1493423 -0.2911931 -0.26764682
000230 fe 85 fa bd 2e f5 2b be 56 2e 75 bd 5c 66 6c be
       -0.12232588 -0.16792747 -0.059858643 -0.23085922
000240 e5 5b da bd 68 09 90 be 44 c9 d1 bd 79 20 5a 3e
       -0.10662059 -0.28132176 -0.102434665 0.2130145
000250 8b e2 66 be db dd 1d be b8 31 98 3e d6 80 ad bc
       -0.22547357 -0.15416662 0.29725432 -0.021179598
000260 69 48 37 be 9f fb ca 3e 9a 19 c6 3e 6f ab bd be
       -0.17898716 0.39645097 0.38691407 -0.37044856
000270 63 45 f7 bd 0c f7 af 3e 53 d9 a9 be 99 7f 8e be
       -0.12073781 0.3436817 -0.33173618 -0.27831724
000280 0c 92 a2 be 1b ac 93 be 96 57 87 be b1 c2 20 3e
       -0.3175205 -0.28842244 -0.2643401 0.15699269
000290 9d f9 b6 be fc 13 94 3e 39 61 b2 3e 95 85 c6 3e
       -0.35737315 0.28921497 0.348398 0.3877379
0002a0 19 4e 79 be 9a 2f 7e 3e 4c 29 ca be 0b b4 14 3e
       -0.24346198 0.24822846 -0.39484632 0.14521806
0002b0 0c 33 c3 be 21 96 89 3e 3f 27 87 be f8 4f 11 be
       -0.38124883 0.26872352 -0.2639713 -0.14190662
0002c0 fe db 9f be 38 a1 f1 3e fb 8c c2 be d6 2c d6 3e
       -0.31222528 0.47193313 -0.37998185 0.41831082
0002d0 11 f3 c9 3e 91 c6 d0 be 2a e9 81 be 71 e0 ad be
       0.39443257 -0.40776494 -0.25373203 -0.33960298
0002e0 fb cd ee bc 0d 46 c8 3e b3 b8 01 3e 2e ba 81 3d
       -0.029150954 0.39115945 0.12668113 0.06334339
0002f0 d9 26 24 3e 3f 67 78 3e bd b3 b6 be ad b8 5b 3e
       0.16030444 0.24258135 -0.35684004 0.21457167
000300 23 8b 24 bd 9e 4c b7 be ac 93 85 bd 0c f2 3c 3e
       -0.040171754 -0.35800642 -0.06522307 0.18451709
000310 a7 5f 68 3e eb 9a bd bc 7e 0a b6 3e 8b f2 ca 3e
       0.22692738 -0.02314516 0.3555488 0.3963817
000320 d9 f9 13 3f b9 34 31 be a8 63 4e bd c5 90 fe 3e
       0.5780311 -0.17305268 -0.05038801 0.49719825
000330 ba 60 5d be 23 ab 60 3e c0 a8 ec 3e 4a 98 4d 3e
       -0.2161893 0.21940283 0.46222496 0.20077625
000340 70 3f 34 be cb 06 93 3e a0 e5 4b bd 72 be 57 be
       -0.17602324 0.2871612 -0.049779534 -0.21068743
000350 76 fd c3 be a8 f1 c1 be 90 c0 fb bb f0 95 cd be
       -0.38279313 -0.37879682 -0.0076828673 -0.40153456
000360 3f 16 81 3e 91 91 f9 3c 8f d5 c4 3d e1 99 d2 be
       0.25212285 0.03046492 0.096110456 -0.41133025
000370 88 1a 06 be d0 83 5f be 80 e8 c8 3e cc 6d 64 be
       -0.13096058 -0.21827626 0.39239883 -0.22307509
000380 5b 07 bb be 00 47 e3 3d ca 86 b4 3e 7b d2 64 be
       -0.3652905 0.110975266 0.35259086 -0.22345917
000390 f5 7d 1b be 65 5d 38 3e 67 11 ce bd 30 43 59 3e
       -0.15184768 0.18004377 -0.10061913 0.21217036
0003a0 5a ca 1e be 20 16 23 be af 87 01 3f 60 25 b9 bd
       -0.15506878 -0.15926409 0.5059766 -0.09040332
0003b0 94 6c cd be b0 2a 4d 3e 32 79 e5 3e b9 e6 ba 3e
       -0.401219 0.20035815 0.44819027 0.36504152
0003c0 8b 84 15 be 9d 95 16 be d0 57 84 bc aa e1 d8 3e
       -0.14601342 -0.1470551 -0.016155154 0.42359668
0003d0 32 40 04 3e d9 a0 a5 be 29 d4 a5 3d 90 55 02 3f
       0.12915114 -0.3234928 0.08097107 0.5091181
0003e0 8e 3f b4 be ba 98 d9 be b4 3b 07 bd 6c 39 5e 3e
       -0.35204738 -0.42499334 -0.03301592 0.21701592
0003f0 4c af 2b be 36 fd 9f be 8e 40 da 3d 2c af ca be
       -0.16766089 -0.31247872 0.10656844 -0.3958677

main_model.hiddenlayer_0.weight f4 [256, 256]
000000 96 1a 8d bd 32 22 97 bc 3e 02 52 3d 71 52 66 bd
       -0.068898365 -0.018448923 0.05127167 -0.056230966
000010 42 d8 92 bc 63 42 aa 3b c8 1c 39 3d ca 7c 55 bd
       -0.017925385 0.005195902 0.045193464 -0.05212096
000020 ae 4b ad 3c 4a 4e fa bb 54 1a 55 bd 1b e4 0a 3c
       0.021154251 -0.0076387273 -0.05202706 0.008477236
000030 60 93 43 3c b8 07 80 bc 14 4b f6 3c 40 cf 77 3c
       0.011936992 -0.01562868 0.030065097 0.015125096
000040 d4 db 6e bd 0f 74 88 3c bb 8f cd 3c 1e 6d 0d bd
       -0.058315113 0.016656904 0.02509295 -0.03452789
000050 5a 5e 39 bd d7 68 47 3d 14 06 b3 bc 36 aa 38 bd
       -0.045255996 0.048683967 -0.021853484 -0.0450842
000060 22 52 46 3c 11 53 89 bc 83 20 63 bd a3 3f 03 3d
       0.012104543 -0.016763242 -0.055450927 0.03204311
000070 36 4c d8 bc fd b3 13 bd 35 9d df 3c 81 5f da 3b
       -0.026403528 -0.036060322 0.027296642 0.006664217
000080 48 e4 db bc 9b 93 d9 3c 80 86 45 3b e2 77 1f bd
       -0.026842251 0.026559642 0.0030139983 -0.03893269
000090 83 83 5f 3c b5 71 bf bb 84 81 00 3d 6b 3c 56 3d
       0.013642195 -0.0058424124 0.031373516 0.052303713
0000a0 d9 4e 59 3b c4 54 d8 bc 3a 4a 08 3d 2e 99 84 bc
       0.003315857 -0.026407607 0.033273913 -0.016186323
0000b0 3b 11 80 3a 30 30 89 3c 74 36 97 3c ac 6a 41 3d
       0.000977076 0.01674661 0.018458582 0.04722087
0000c0 91 51 9f bb ea cb 31 3d 73 7e ee bc 81 74 84 bc
       -0.0048620184 0.04340736 -0.02911303 -0.016168835
0000d0 fe bd 00 bd 7f 31 5e bd 5b aa 5e 3d 9a 59 3a bd
       -0.03143119 -0.054246422 0.054361682 -0.045495607
0000e0 d7 53 44 bc e0 b3 61 bc 8f 9d 14 bc 75 ba ee 3c
       -0.01198288 -0.013775796 -0.009070768 0.029141644
0000f0 ec 24 a1 3c 0c 25 d3 bc 07 34 2b bd 7c 62 e5 3b
       0.019670926 -0.025774501 -0.041797664 0.0070002656
000100 b5 e8 16 3d 28 a0 28 3d 92 96 3d bd c1 71 3b 3d
       0.03684302 0.041168362 -0.046286173 0.04576278
000110 6d cd 52 3d 0f 11 79 bd a3 1e 5d bd ef 26 13 3d
       0.05146544 -0.060807284 -0.053984296 0.0359258
000120 cc 6f 7b bc 3c 1f 59 3d b9 6e 54 3b c5 4b 58 bc
       -0.015346479 0.053008303 0.0032414629 -0.013201659
000130 2e a0 53 bd 83 e1 65 3d 9a 26 88 bd 87 58 45 3c
       -0.05166643 0.056123268 -0.06647988 0.012045032
000140 f6 2b 1a bd d6 b8 55 bd 8f c7 a3 3c fb e6 70 3b
       -0.03763958 -0.052178226 0.019992618 0.003675877
000150 5c 69 a1 3c 72 15 33 3c fc 25 49 3d 75 36 2f 3c
       0.01970356 0.010930406 0.04910849 0.010694136
000160 32 2f d1 bc f1 82 6f b9 1a 59 35 3c b8 2c 03 3c
       -0.0255352 -0.00022841596 0.011068607 0.008006267
000170 fc ef 72 3d c1 44 1c 3d d8 61 fc 3c 12 f5 4d 3d
       0.0593109 0.038151506 0.030808374 0.050282545
000180 64 f5 d6 bc 8d fd 1c 3d 1b 2c 86 bd 8d 55 13 bd
       -0.026240058 0.038327742 -0.06551381 -0.03597026
000190 5b 71 00 3d 58 db 4c 3c 26 b4 63 3c 4a 2f ea 3b
       0.031358104 0.0125034675 0.013897931 0.0071467506
0001a0 e9 b4 35 bd 70 3c e1 bc 9d 66 8a bd 90 22 67 bc
       -0.044361982 -0.02749464 -0.06757853 -0.014107361
0001b0 63 8b b5 bb 19 e9 1c 3d 61 e9 c0 bc d8 85 05 3b
       -0.005540298 0.038308237 -0.023548784 0.0020373967
0001c0 5d 4e cb 3c 67 49 42 bc ef f6 5d bb 8e e3 74 bd
       0.02481764 -0.011858321 -0.0033869108 -0.059787326
0001d0 c8 e1 46 3d 8c 4e 1c 3d ea e5 17 bd e2 f7 48 bd
       0.048555166 0.038160846 -0.037084498 -0.049064524
0001e0 18 13 fe 3c d7 6c 8d bc 6f 9b ad bc 51 af ff bb
       0.031014964 -0.017263813 -0.02119228 -0.0078028818
0001f0 f2 53 db 3c ad ec 4e 3d 93 bf d4 3c f0 36 f1 bc
       0.026773427 0.05051868 0.025970256 -0.029445142
000200 56 7c bd 3c c5 46 8b bd e0 70 74 bc 8e 75 35 3a
       0.023130577 -0.068006076 -0.01491949 0.0006922119
000210 1a bf 37 bd e7 db 32 bd 00 ca 11 bd ba 58 30 bd
       -0.044859983 -0.043666746 -0.035593033 -0.043053366
000220 25 a0 05 bc d8 31 d6 bc 7b 4a 8a bd f9 b5 83 bd
       -0.008155857 -0.026146814 -0.06752487 -0.06431193
000230 4e 7f 2a bd 6d b8 24 bd 58 a1 e9 bb 7f 97 2c 3d
       -0.041625313 -0.040214945 -0.0071298294 0.042136665
000240 27 28 4a bd 2e 3f 29 3d 20 10 fd 3c d5 f0 88 3c
       -0.0493547 0.04132002 0.030891478 0.0167164
000250 ae 8b 68 3c 71 a5 50 ba 86 3d 72 bd ba 74 9a bd
       0.0141934585 -0.0007959223 -0.059140705 -0.07541795
000260 f0 c7 48 bd 2e 1f 40 bd 85 42 7c bd 04 15 01 bd
       -0.0490188 -0.046904735 -0.061586875 -0.031514183
000270 24 cb 56 bd a5 0b 3b bd ed 36 44 bd 42 a8 77 bd
       -0.052439824 -0.045665402 -0.047903944 -0.060463198
000280 e3 14 16 3d 00 82 9b ba dd 9e 66 bd f2 c3 99 bd
       0.036641013 -0.0011864305 -0.056303848 -0.07508077
000290 b2 e1 10 3d be f9 4a bd e3 91 02 bd 78 7f ff 3c
       0.03537149 -0.04955458 -0.03187741 0.031188712
0002a0 b0 45 24 bb 74 48 88 3c d8 da 76 3b 53 64 20 3d
       -0.002506595 0.01663611 0.0037667062 0.039158177
0002b0 b0 ba f5 3b 1f 32 de bc 3a 24 2c 3d de 9d 8d bd
       0.0074990615 -0.027123509 0.042026736 -0.069148764
0002c0 68 69 3b bd 4b 45 39 bd 63 93 77 bd da b1 fe 3c
       -0.04575482 -0.0452321 -0.060443293 0.031090666
0002d0 5b 21 8e bd 44 1b f6 bc d5 23 be 3c c6 b8 50 3d
       -0.06939956 -0.030042298 0.023210445 0.050957464
0002e0 65 7c 14 3d 1a 77 13 bd 19 0d 99 3a 54 23 eb bc
       0.036251444 -0.036002256 0.0011676877 -0.02870337
0002f0 05 29 e5 bc d9 d7 37 3d 88 40 23 39 7e da be 3c
       -0.027973661 0.044883583 0.00015568931 0.023297545
000300 36 fd 7b bd ec 88 03 bd b0 60 d1 3b f4 74 40 bd
       -0.061520778 -0.032113 0.0063897 -0.046986535
000310 89 85 0c bd 6d ab 64 bc c4 e8 44 3d c1 3d 58 bc
       -0.034307037 -0.013956887 0.048073545 -0.013198317
000320 26 67 39 bc a3 03 e4 bc 94 ba 29 3d 4a e8 67 bd
       -0.011316096 -0.027833765 0.0414377 -0.056618012
000330 e0 8e b8 bc 4c d0 2a bd 12 87 82 bd 7b a0 21 3c
       -0.022529066 -0.041702554 -0.06373419 0.009864922
000340 2c a6 67 bd 3e 20 18 3d 7b 50 34 3d 38 c8 c6 3c
       -0.05655496 0.037140124 0.044022065 0.024265394
000350 78 aa 2c bd 11 23 54 bd 05 72 91 bd b5 81 17 3b
       -0.04215476 -0.051791254 -0.071018256 0.0023118083
000360 49 6f b4 3a 39 8c 31 3c 9c ef cf 3a 6d 42 8f bd
       0.0013766076 0.010836654 0.0015864256 -0.069950916
000370 d4 58 3b bd 04 28 91 3c 9f 4d fd bb b2 a6 b5 bc
       -0.04573901 0.017719276 -0.0077302004 -0.022174213
000380 1a ef 46 3d fb e0 22 3b 02 b7 e8 3c 70 f9 78 3c
       0.04856787 0.0024853337 0.028407577 0.015196189
000390 fc fd 40 3d c4 75 8c bd 5a 0a be 3a fe c0 1d bd
       0.04711722 -0.068583995 0.0014498935 -0.03851413
0003a0 60 6c 9a 3c 55 c6 8d bd 33 28 83 bd 96 47 1f bc
       0.018850505 -0.069225945 -0.06404152 -0.009721657
0003b0 e7 53 c0 3c de 19 6d 3c 12 c8 3a 3d ba b9 db 3c
       0.023477508 0.014471499 0.04560096 0.02682196
0003c0 e3 89 e1 3c a8 fa 18 3d 78 4c 65 bd 99 4a b0 3c
       0.02753157 0.03734842 -0.05598113 0.021519946
0003d0 ee 59 22 3d fd e1 48 bd dc 19 ab 3c b5 51 d5 3c
       0.039636545 -0.049043644 0.020886354 0.026039938
0003e0 c1 2c 82 bb 4c 60 89 bd 55 c5 05 3d 64 af 1c 3d
       -0.0039726202 -0.0670782 0.032658894 0.038253203
0003f0 08 01 47 bc 20 08 40 3d 19 f1 ea 3c 75 b2 64 bd
       -0.012146242 0.04688275 0.028679417 -0.055834252

main_model.hiddenlayer_0.bias f4 [256]
000000 f4 80 28 3d 77 2e 1d bd e4 a3 54 bd 95 fc fc 39
       0.041138604 -0.03837439 -0.05191411 0.00048253374
000010 97 b3 21 3d e3 15 08 3d a8 80 0f 3d d1 98 67 bc
       0.03947791 0.033223998 0.035034806 -0.014135555
000020 50 97 16 bd 60 ff 2a 3c dc a8 fc 3c e6 5e b2 bb
       -0.036765397 0.010436863 0.030842237 -0.0054434417
000030 74 14 a8 3c 49 73 ce bc 80 0e c8 3b 00 80 ce 37
       0.020517565 -0.025201457 0.006105244 2.4616718e-05
000040 17 60 7f bd 8d f3 67 bc e6 5c 72 bd 7e 4e 61 bd
       -0.062347498 -0.014157188 -0.059170626 -0.055006497
000050 2c d3 4b 3d 8c 92 6f bb 3c 2b 8a 3d 54 25 bd 3c
       0.049761936 -0.0036555855 0.067465276 0.023089088
000060 b2 25 ec 3c 04 5d ed 3c 4f 9c 81 bd e6 bc 79 3c
       0.028826568 0.028975017 -0.063286416 0.015242791
000070 94 69 cd bb c8 10 90 bc 5f 59 fa bc c0 4e e8 3b
       -0.0062686894 -0.017586127 -0.030560194 0.007089466
000080 80 3b 58 bd 0b 00 fb 3c be 8b 91 bc 30 81 a1 3c
       -0.05279112 0.030639669 -0.01776683 0.019714922
000090 72 a7 2e 3d 7d a6 8d bd 69 14 bb 3c 6b 2f 4a 3b
       0.042640157 -0.06916521 0.02283688 0.0030851017
0000a0 d0 d3 4c 3c 30 26 fb 3c 4a 80 1c bd e1 57 ac 3c
       0.012501672 0.030657858 -0.038208283 0.021037998
0000b0 ab 23 f9 bb 44 20 29 3d de 55 fc 3c ae 01 60 bd
       -0.007603129 0.041290537 0.030802663 -0.054689102
0000c0 23 68 80 3d 66 0c 37 3c 26 0b 38 bd 6b e5 0d 3d
       0.062698625 0.01117239 -0.044932507 0.03464262
0000d0 c2 20 e1 3c fc 6a 81 bd df 41 af 3c 62 5a 2e bc
       0.02748144 -0.06319234 0.021393714 -0.010641666
0000e0 95 21 58 3d a2 44 15 3d 30 1b 89 3a 37 32 20 bb
       0.0527664 0.036442406 0.0010460373 -0.0024443993
0000f0 52 29 11 bd 5a e6 2e 3d db a7 85 bb 73 44 19 bd
       -0.035439797 0.04270015 -0.004078848 -0.037418794
000100 72 fc 16 bc dd 4d 9f bc 9c b2 b7 bc 44 bc 6d bd
       -0.009215461 -0.019446308 -0.022424035 -0.058040872
000110 b6 0d 0e 3d 5a c9 49 3c f0 70 aa bb 88 5a 60 3d
       0.034681045 0.012316072 -0.0052014515 0.054773837
000120 9a cc 70 bd 18 53 ae bc 13 69 a2 bc e9 9a aa 3c
       -0.058788873 -0.021279857 -0.019825494 0.02082582
000130 f7 aa 66 3d 01 a1 3e bd 43 6d 66 bb 9a 06 16 3b
       0.05631539 -0.046540264 -0.003516034 0.0022892118
000140 ac 4b 63 bd 68 49 6d bb ab 2f 22 3c e7 b3 50 3d
       -0.05549209 -0.0036207084 0.00989906 0.05095282
000150 6f 43 82 3c 53 2b 8f bb b3 43 4b 3c d2 f7 9c 3c
       0.015901295 -0.0043691783 0.0124062775 0.019161139
000160 90 99 23 bc a6 bc 0c bd fa 38 64 bd 36 e5 be 3c
       -0.009985343 -0.034359597 -0.0557184 0.023302656
000170 9d bc c9 3c 6f 2c 64 3c 66 07 11 3d 3b 21 86 bd
       0.02462607 0.013926609 0.035407446 -0.06549307
000180 76 4b 1c bd 38 bf 48 3c 6d 15 24 bd e8 f6 a8 bc
       -0.038157903 0.012252621 -0.040059496 -0.020625547
000190 58 c1 9a 3c ff 5f db 3c 38 ee 84 3c ee 77 3f bc
       0.018891022 0.026779173 0.016226873 -0.011686308
0001a0 73 8c 53 bc 40 3f 6c 3c e0 5b fa bc 78 0d 7e 3b
       -0.012911904 0.014419377 -0.030561388 0.0038765352
0001b0 02 7d 3d 3d 83 14 34 bd 71 dc f1 3c 5f 7d 5e 3c
       0.046261795 -0.043964874 0.02952406 0.0135796955
0001c0 b3 0f 64 3c 48 ff cd bc 27 c8 4c 3d 14 0f 18 3d
       0.013919759 -0.025146142 0.049995568 0.037123755
0001d0 4f 6a 0b 3d 74 56 a8 3c a5 e6 62 3c 84 6d ef 3c
       0.03403693 0.020549037 0.013848935 0.029227026
0001e0 96 43 09 3d f6 7d 3a bd 0e c4 38 bd ff 0b 01 3d
       0.03351172 -0.045530282 -0.045108847 0.03150558
0001f0 9c 8e 90 3c ab b0 fc 3c de 79 be 3c c9 8c d1 3d
       0.017646126 0.03084596 0.02325147 0.10231931
000200 3f 6b bd 3c 94 9a 80 bd 61 94 57 3c f6 80 36 3d
       0.023122428 -0.062794834 0.013157935 0.04455658
000210 38 d6 22 3e 09 42 78 bd 8d 05 cb bc 57 d7 2c 3d
       0.1590203 -0.06060985 -0.02478292 0.04219755
000220 2e 70 89 bd 59 4e c8 3c d3 d0 15 bd 0c a2 70 bd
       -0.0671085 0.024451422 -0.036576103 -0.05874829
000230 80 4d d2 bc 90 1d 61 3c 00 10 e0 bb a5 de 32 3e
       -0.02567172 0.013739958 -0.006837845 0.17467745
000240 0a 16 8c bd a2 32 1d bd 00 d7 0d ba 27 50 06 3d
       -0.06840141 -0.038378365 -0.00054107606 0.032791283
000250 2e 16 05 bd b6 9e cf 3c cf e9 cf bc 74 ee 2f bd
       -0.032491855 0.025344234 -0.025380043 -0.042952016
000260 1d e2 ef b9 82 41 6b bd b3 a4 71 bd 55 d3 42 bd
       -0.000457541 -0.05743552 -0.05899496 -0.047564823
000270 d1 7f 11 bd 64 65 fe 3c 68 8d f9 bc 0c a6 ed 3c
       -0.035522286 0.031054206 -0.030462936 0.029009841
000280 b7 21 18 3c ca ab 55 3d 4b ba 21 3d a7 37 34 3e
       0.009285382 0.052165784 0.039484303 0.17599355
000290 e4 65 86 bc 72 06 f3 bc b6 ab 1a 3d 7f fd 72 3d
       -0.016406007 -0.02966616 0.037761413 0.059323784
0002a0 9c 08 2d 3d 6c bc f0 3c 0c d0 ce bc 7e 80 84 bd
       0.04224454 0.029386722 -0.025245689 -0.064698204
0002b0 34 be 22 bd 2e 34 99 bc 14 36 52 3d 8a d9 f7 bb
       -0.039732173 -0.018701639 0.051321104 -0.0075637745
0002c0 54 10 0d bd 41 8a 86 bd 08 fd bd 3c 4e fa bc 3c
       -0.0344394 -0.065693386 0.023191944 0.023068573
0002d0 58 22 61 bc 66 3d 5b 3d ea 8c 8a bc a8 b8 80 bc
       -0.013741098 0.05352535 -0.016912896 -0.015713051
0002e0 a1 d2 23 3e 24 b5 02 3d e4 05 b1 3c f2 e3 3d 3c
       0.15998317 0.03191103 0.021609254 0.011589991
0002f0 fb f2 d2 3c a8 c8 05 3d 96 c7 da 3c 75 26 fe bc
       0.025750628 0.032662064 0.026706498 -0.031024197
000300 ee 5d 1d bd a4 c4 92 3c 00 09 9d bc c0 7e d1 ba
       -0.038419656 0.017916031 -0.01916933 -0.0015983209
000310 48 5b e0 bc 58 21 c2 3c 52 09 7e bd 7f 10 cc 3c
       -0.027387276 0.02369754 -0.062020607 0.02491021
000320 c0 b4 37 bd 67 b7 d3 38 08 49 f4 bc 0d e9 bc 3d
       -0.04485011 0.000100954254 -0.02981998 0.092241384
000330 d3 8f 73 bd 70 ba ad 3d 0d cc 56 bd 4f 7c ef bc
       -0.059463333 0.08482826 -0.05244069 -0.02923408
000340 31 1c 37 bb 0f 71 70 3e 76 e5 51 bd 68 a4 e8 bc
       -0.0027940387 0.23480628 -0.05124422 -0.028398708
000350 67 9d b6 bc 40 9d 5f 3e 00 8c e9 3c 73 f7 32 3c
       -0.022291852 0.2183733 0.02850914 0.010923254
000360 e8 e5 0e bd 2a 8d 2f bd da 47 41 3d 50 0a 40 bd
       -0.034887224 -0.042859234 0.047187664 -0.046884835
000370 8e 78 ed 3c ad 24 50 bc 7b b9 da bc fb 40 a9 bc
       0.028988149 -0.012704057 -0.026699772 -0.020660868
000380 f1 38 b7 3c 99 8c 81 bd ae a7 35 3d c8 51 41 bd
       0.022366019 -0.06325645 0.044349365 -0.047197133
000390 c0 b0 c6 3a 33 79 13 3d 0a 03 60 bd e1 4e 39 bd
       0.0015158877 0.036004256 -0.0546904 -0.04524124
0003a0 cd 11 55 3d e4 a2 1b bc 34 c0 c8 3c 90 fa 67 bc
       0.05201893 -0.009499285 0.024505712 -0.01415886
0003b0 25 15 1a 3d 14 42 42 bd 94 c7 35 bd 5e 0a e7 bb
       0.03761782 -0.0474263 -0.044379786 -0.0070507964
0003c0 11 b3 41 bd df 89 76 bd 0b a5 7d 3c ab 13 42 bd
       -0.04728991 -0.060190078 0.015481244 -0.047382038
0003d0 a2 59 7f bc 6f 8e 21 bd 10 6e 41 3d 43 ae 22 bd
       -0.015585335 -0.039442476 0.047224104 -0.03971697
0003e0 4d 3b 4e bd 27 fe dd 3b 75 00 71 bd c8 6e ce 3c
       -0.050349522 0.006774682 -0.058838326 0.025199309
0003f0 69 5a 89 39 b6 08 de 3d 1e 73 3d 3d 52 b3 71 bd
       0.00026198037 0.10841505 0.046252362 -0.059008904

main_model.OutputLayer.weight f4 [3, 256]
000000 5a 81 ae bb 6d 82 16 bc e1 14 06 bc 33 76 eb bc
       -0.0053254785 -0.009186369 -0.008183689 -0.028742885
000010 21 69 d6 bb ca 36 36 bd 9c cc 15 bd d7 b1 8f bc
       -0.006543294 -0.044485845 -0.036572084 -0.017540855
000020 07 53 37 3c 20 d8 38 3b 70 16 e5 3c 88 d3 92 3c
       0.011189229 0.0028204992 0.0279648 0.017923132
000030 64 60 45 3d 7b f8 91 ba ca d1 17 bd a6 12 39 3d
       0.04818763 -0.0011136675 -0.037065305 0.0451838
000040 22 06 45 3d 3b 58 88 bc 20 8b 05 3b 07 c8 d5 bc
       0.04810155 -0.016643634 0.0020377114 -0.026096357
000050 4e 75 c1 3a 3d 52 7e 3c b2 98 f2 3c 8d 73 c7 3c
       0.0014759691 0.015522537 0.029613826 0.024347091
000060 fb 6f 37 bd 62 cd 05 3d b6 3a 21 3c 1e 69 1b 3b
       -0.044784527 0.03266657 0.009840658 0.0023713778
000070 e1 52 0a 3c 55 de 56 3c 6f c5 0b ba 8a 27 c9 3c
       0.008442611 0.0131145315 -0.0005331849 0.024554987
000080 f0 c7 95 bc 79 b6 98 bb c8 64 d9 bc e0 22 9f bc
       -0.018283814 -0.0046604243 -0.026537314 -0.01942581
000090 03 67 24 bd 27 cd 3e 3d 6f f2 c7 bb 39 79 94 bb
       -0.040137302 0.046582367 -0.0061018984 -0.0045310524
0000a0 72 d4 0e bd e7 01 68 3c 8c cf 09 bd a8 c7 2b bd
       -0.034870572 0.01416061 -0.033645198 -0.041938454
0000b0 ca da 2e 3d 20 c8 bb 3c 94 35 05 bb 5e 84 fc 3c
       0.042689122 0.022922575 -0.0020326125 0.030824836
0000c0 6d 48 5b 3d ce 69 88 bc 5e b9 49 3d 8b b2 17 bc
       0.053535867 -0.016652014 0.049249046 -0.009258877
0000d0 91 25 8c bc a2 10 3a 3c 45 a7 2f 3d 25 96 3c 3c
       -0.017107757 0.011356505 0.04288413 0.011510407
0000e0 e1 e7 e0 bb 88 a3 fb bc 32 98 cc bc 7a 6a f5 3c
       -0.0068635796 -0.030717626 -0.024974916 0.029957999
0000f0 a1 b4 d9 ba 39 28 4f 3d 77 46 06 3c 50 88 33 bd
       -0.0016609618 0.05057547 0.008195511 -0.04383117
000100 85 0d 69 3c b8 d7 c9 ba e0 23 2e bd 0e ca 05 3b
       0.014224415 -0.0015399372 -0.04251468 0.0020414623
000110 6c 4f 52 3d 8a 82 e3 3c f4 bd 56 3c 86 eb 70 3a
       0.051345274 0.027772207 0.013106812 0.0009190369
000120 02 2e a6 3a e2 10 1d 3d 23 63 1d 3c cd c4 56 3c
       0.0012678506 0.03834618 0.009606156 0.013108444
000130 ab 2f 31 bc 23 59 95 3c bf 73 c8 bc 33 34 82 3c
       -0.010814588 0.01823098 -0.024469255 0.015894031
000140 59 69 94 bb d2 78 fe 3b 59 3a fe 3b 2c 46 61 bd
       -0.00452916 0.0077658677 0.0077584204 -0.05499856
000150 2b 34 ea bb 5d 48 29 3b c7 57 32 bd a7 cc 66 bc
       -0.007147332 0.0025830485 -0.043540742 -0.014086879
000160 04 8e 04 bd 40 03 79 bb d3 6b fd 3c 1d f2 69 bb
       -0.032362 -0.0037996322 0.030935204 -0.003569729
000170 fd d5 12 3c 03 ea 11 3d 37 d1 de bb de 7e ce 3c
       0.008962152 0.03562356 -0.0067998427 0.02520698
000180 f4 71 29 3d a3 5c 21 3d c2 68 d1 bc 34 ab 5b bd
       0.04136844 0.039394986 -0.025562648 -0.05363007
000190 60 d7 63 bd 84 e0 25 bb 1c ab 30 3d 96 38 22 bd
       -0.05562532 -0.0025310824 0.043131933 -0.039604746
0001a0 c1 47 9a bb 7f ca 50 bc 6c 1f 2a 3d 94 46 07 3d
       -0.0047082608 -0.012743591 0.041533872 0.033026293
0001b0 f2 aa a9 bc a7 84 c0 b9 b2 98 6a bc a4 73 96 3c
       -0.020711396 -0.00036719927 -0.014318632 0.018365689
0001c0 4e 7b 5b bc e3 40 07 bb 2a a3 fa 3c 6b b7 d7 bc
       -0.013396097 -0.002063804 0.03059538 -0.026332578
0001d0 9f db 9e 3a 40 89 2c 3b 9d 0e 61 bc 63 f7 04 bc
       0.0012119896 0.0026326925 -0.013736394 -0.008115622
0001e0 cc b9 dc bc da 1f 0b 3d b4 75 51 bd 0a a0 c8 3b
       -0.026944064 0.033965923 -0.05113764 0.006122594
0001f0 5c ec 84 3c 8c 96 7d ba 2a df 88 3c fb 50 6e 3d
       0.016225986 -0.00096736173 0.016707975 0.058182698
000200 a1 82 11 3c 4b 77 24 bd 7e 74 8a bc 20 99 03 bc
       0.008881242 -0.04015283 -0.01690125 -0.008032113
000210 6f b1 27 3d 0e 36 ad bc 52 2a 74 bb c6 76 1c bd
       0.0409407 -0.02114394 -0.003725667 -0.03819921
000220 8f 78 37 bd 26 25 a5 3c 77 87 21 3b fb 36 df 3c
       -0.044792708 0.020159315 0.0024647394 0.027247896
000230 b0 02 3f bc d6 02 3f 3d 9c 7d 1f bd bd 07 44 3e
       -0.011658356 0.046633564 -0.03893815 0.19143577
000240 c1 44 f7 bc 98 65 32 bc 82 e3 6b 3d 4b 31 d1 3a
       -0.030184152 -0.01088848 0.057590015 0.0015960125
000250 29 41 3d bd 46 98 16 3c 0b 42 ba 3c 90 5e 72 bd
       -0.04620472 0.009191578 0.02273657 -0.059172213
000260 5b 4c 76 3c 36 e8 38 3d e4 67 a6 bb da fd cf b9
       0.015032853 0.04514333 -0.0050783027 -0.0003967125
000270 9b 27 bf 3a 6b ca 7d 3b 5b 26 b4 bb 2a fd 80 ba
       0.0014583947 0.0038725387 -0.0054977364 -0.0009841074
000280 c5 8f 37 3c b9 50 e0 bc 11 dd 33 bc b2 3d 06 3d
       0.011203711 -0.027382242 -0.010977999 0.03277368
000290 6e 4f ba 3c 0d 21 cf 3c 52 e6 02 3d 38 25 49 3d
       0.022742953 0.025284315 0.03195793 0.04910776
0002a0 c9 87 75 3c 2d c8 1d bd f8 f8 0f bd 38 99 78 3d
       0.014985987 -0.03852098 -0.035149544 0.060692996
0002b0 b0 d0 34 bb 5c f7 e9 39 7e 68 69 3d 53 54 45 bc
       -0.0027590208 0.0004462552 0.056984417 -0.01204403
0002c0 fe 02 0c 3d a0 54 12 bd 70 e1 b7 3c 3b 33 3a bd
       0.03418254 -0.035725236 0.022446364 -0.045459013
0002d0 40 ff b6 bb 0a 38 32 3c 3e d7 a0 3c 05 cc 87 3c
       -0.0055846274 0.010877619 0.019633885 0.016576776
0002e0 b2 6b 6b 3e 17 55 ae 3b 70 01 50 bd e6 01 2d bd
       0.22990301 0.005320202 -0.05078262 -0.04223814
0002f0 b8 85 8e bc 39 92 6b 3d 02 33 f2 ba e8 f9 b7 bc
       -0.017397746 0.057512496 -0.0018478336 -0.022458032
000300 75 60 0a bd b0 ed 42 3b ee 9d 47 bd 00 17 ac bb
       -0.033783395 0.0029743724 -0.048734598 -0.0052517653
000310 64 43 92 3c 82 aa 50 bd ac a0 f6 bc 8d fa 06 3c
       0.0178544 -0.05094386 -0.030105911 0.008238447
000320 8e 82 3e bd fd dd b9 bb 7d 1f 9f bb 4d 43 2e 3d
       -0.046511225 -0.005672215 -0.0048560486 0.04254465
000330 5f 13 c0 3c 47 cf 21 3d 11 32 cb 39 a2 ea 03 bd
       0.023446737 0.039504316 0.0003875648 -0.032206185
000340 10 b8 ff b9 0d a4 65 3e 85 c4 27 bd 76 b4 4e 3d
       -0.00048774527 0.22425862 -0.0409589 0.05046507
000350 4f 0c 38 bd 44 96 44 3e c4 bf 8f 3b ab a9 ec bc
       -0.044933613 0.19197947 0.004386874 -0.028889498
000360 d8 b7 ce bc 18 4c e2 bc a0 b8 c5 3c 1f 5e bc 3c
       -0.025234148 -0.027624175 0.024135888 0.0229941
000370 74 49 3a 3d d3 82 6b 3c f6 0a 22 3d 22 9c db bc
       0.045480207 0.014374453 0.039561234 -0.026807848
000380 1f 13 2d 3d bb 6a a4 3c 00 63 d8 3c ce 4d 49 3d
       0.042254563 0.020070424 0.026414394 0.049146466
000390 b0 58 9b 3c 3b 53 80 3c f6 2f 20 3d 2a d6 f2 bc
       0.018963188 0.015664687 0.03910824 -0.029643137
0003a0 36 b1 aa 3c 0a d2 8a bb a8 ad 4f bc 99 25 70 3b
       0.020836454 -0.0042364644 -0.01267568 0.0036643504
0003b0 30 85 37 3b 31 a0 07 3c 04 33 02 bd 5c 76 11 3d
       0.002800297 0.008277939 -0.031786934 0.035513267
0003c0 48 9f 5e bb 04 0e c0 3b 58 e6 de bc c7 28 1e 3d
       -0.003396945 0.005861046 -0.027209446 0.038613107
0003d0 50 92 c2 3a 22 d1 7c 3a 60 28 d7 3c fa f8 48 bc
       0.001484463 0.00096442003 0.02626437 -0.012266392
0003e0 6e a6 85 3c 3f 9a 35 bd b5 3f cf 3c 6a 92 ef bc
       0.016314711 -0.044336554 0.025298933 -0.02924462
0003f0 23 3b bf bc b1 0f 0f 3e 82 88 32 bc 10 41 e1 bc
       -0.023343628 0.1397083 -0.010896804 -0.027496845

main_model.OutputLayer.bias f4 [3]
000000 74 da ac bc fb ca d6 3c 0f 13 fa 3c
       -0.02110026 0.026219836 0.030526666
