DQN_incomplete/11/save/main_model_000004.pth (torch_old, 274770 bytes, 6 tensors)

main_model.InputLayer.weight f4 [256, 6]
0	0x3e24b385	0.16084106
1	0x3e3a6b49	0.18204989
2	0x3d714869	0.058906946
3	0xbe93b339	-0.28847674
4	0xbed9a184	-0.4250604
5	0xbea321ce	-0.31861728
6	0xbec834e0	-0.3910284
7	0xbe3ad7e4	-0.18246418
8	0x3e4eeb40	0.20206928
9	0xbecd05f2	-0.40043598
10	0xbeb94eaf	-0.36192843
11	0x3bca6540	0.0061766207
12	0xbe5e3aa4	-0.21702057
13	0xbdaa414c	-0.08313236
14	0x3e5a1e04	0.21300513
15	0xbec12031	-0.37719873
16	0xbd8ed594	-0.069743305
17	0x3eb29896	0.3488204
18	0xbea9e978	-0.33185935
19	0xbdcf2ff9	-0.10116572
20	0xbdae2f26	-0.085050866
21	0x3eb43937	0.351999
22	0xbdf84c41	-0.12123919
23	0xbe93b760	-0.28850842
24	0xbe9bdd88	-0.30442452
25	0xbe93f5a4	-0.28898346
26	0xbea2defd	-0.31810752
27	0x3ec5673a	0.38555318
28	0x3eb7b786	0.35882205
29	0xbe32bb2a	-0.1745421
30	0xbe7864be	-0.2425718
31	0xbec2ccef	-0.38046977
32	0xbcd406f0	-0.025882214
33	0xbe0a6178	-0.13513744
34	0xbeabf091	-0.33581975
35	0x3e9b433c	0.30324733
36	0xbe3e0225	-0.18555506
37	0x3cb93bb8	0.022611484
38	0x3ead1035	0.33801427
39	0xbdfbf130	-0.12301862
40	0xbe84d04e	-0.25940174
41	0xbe8db1a5	-0.27674595
42	0x3e42e29a	0.19031754
43	0x3d550e78	0.05201575
44	0x3ea6b68a	0.3256114
45	0x3e7f1921	0.2491193
46	0xbca1fc0a	-0.019773502
47	0x3e944d16	0.28965062
48	0xbe2fb66a	-0.17159429
49	0x3e8d307a	0.27576047
50	0x3e4b1627	0.19832669
51	0x3e46e7a3	0.194243
52	0xbdcd2781	-0.100173004
53	0x3eb07aea	0.34468776
54	0xbea45ec9	-0.32103565
55	0x3cf21a14	0.02955345
56	0x3eba88b3	0.36432418
57	0x3e39dd0c	0.18150729
58	0x3eb5515c	0.35413635
59	0x3dae4ee1	0.08511139
60	0x3e568a54	0.20951205
61	0xbe196aac	-0.14982098
62	0xbec813ab	-0.39077505
63	0xbe7a3d65	-0.24437483
64	0xbe9923a7	-0.29910013
65	0x3db73df8	0.089473665
66	0x3e652b32	0.22379759
67	0xbe63b9c7	-0.22238837
68	0x3e46f582	0.19429591
69	0x3dea7e23	0.1144984
70	0xbe8e58e4	-0.27802193
71	0xbd9e1f3d	-0.07720802
72	0xbea7c0ed	-0.32764378
73	0x3caa708b	0.020805618
74	0xbeb5d579	-0.3551443
75	0x3e7878fc	0.24264902
76	0x3defa447	0.11701255
77	0xbebdd386	-0.37075442
78	0x3e224607	0.15847026
79	0x3c0eb311	0.008709685
80	0xbe1afb29	-0.15134872
81	0xbe0d8c32	-0.13823012
82	0xbe8b7a21	-0.27241614
83	0xbd80da01	-0.06291581
84	0x3e4226aa	0.18960062
85	0x3e69c512	0.22829083
86	0xbe89a9f0	-0.26887465
87	0x3c8f0409	0.017457979
88	0x3ec0dd43	0.3766881
89	0x3e890606	0.26762408
90	0xbd324a8c	-0.043528125
91	0x3d9260e3	0.07147386
92	0x3dca23dc	0.09870121
93	0x3e879d67	0.26487276
94	0xbe806311	-0.25075582
95	0x3e37ee6e	0.17962047
96	0x3e01cbb6	0.12675366
97	0x3ea6b0d4	0.32556784
98	0x3dc85738	0.09782261
99	0x3e45eff3	0.19329815
100	0xbe91ed09	-0.28501156
101	0x3e946b71	0.2898822
102	0x3dccebf6	0.100059435
103	0xbee2ae84	-0.4427377
104	0xbe2eb303	-0.17060475
105	0x3e337927	0.17526685
106	0x3c0048be	0.007829843
107	0xbea1fe42	-0.31639296
108	0xbd554910	-0.05207163
109	0x3e9e224e	0.30885547
110	0xbec225b4	-0.3791939
111	0xbdb56dcd	-0.088588335
112	0x3e4aa32b	0.19788806
113	0xbd88f294	-0.06686893
114	0x3eb260a8	0.34839368
115	0xbeaca49b	-0.33719334
116	0x3e7315a8	0.2373873
117	0xbe36508a	-0.1780416
118	0x38dc29b4	0.00010498185
119	0x3ebe3215	0.37147585
120	0x3dc89200	0.09793472
121	0xbeb084d0	-0.34476328
122	0xbe9d457c	-0.30717075
123	0xbec9eebb	-0.3943995
124	0x3c25d040	0.010120451
125	0xbdf853ec	-0.12125382
126	0x3e9f39bb	0.31098732
127	0x3e8832b3	0.2660118
128	0xbc87c9a5	-0.016575644
129	0x3e30cbad	0.17265196
130	0x3c64411b	0.013931538
131	0xbe1c0393	-0.15235738
132	0x3e0f1d62	0.13976052
133	0xbea60df3	-0.32432517
134	0x3d4b5686	0.049643062
135	0x3b6ee0e4	0.0036449963
136	0xbe4d3597	-0.20039974
137	0xbe92fa75	-0.2870671
138	0xbe3387a2	-0.17532209
139	0x3e6cc4e3	0.23121981
140	0xbd638d96	-0.05555495
141	0xbe1fb1ac	-0.1559512
142	0x3e8552f6	0.26039857
143	0xbddc9eb6	-0.10772459
144	0xbe2885f9	-0.16457357
145	0x3e9cfb07	0.3066027
146	0x3c2596b7	0.010106734
147	0x3e2b7dbf	0.16747187
148	0x3ec0cbed	0.37655583
149	0xbe4bd1fc	-0.19904321
150	0xbc82dbfd	-0.01597404
151	0xbe7885ea	-0.24269834
152	0xbe64f06d	-0.2235734
153	0xbddf2489	-0.108956404
154	0x3e3b1af2	0.18271998
155	0x3eba3886	0.3637125
156	0x3e711d26	0.23546275
157	0x3e5370a7	0.20648442
158	0xbd85fd1a	-0.06542416
159	0x3d6598c3	0.056053888
160	0xbed10e28	-0.40831113
161	0x3f00f37e	0.5037154
162	0xbd3fa334	-0.046786502
163	0x3e3a64f4	0.18202573
164	0x3e49578d	0.19662304
165	0xbecd0a08	-0.40046716
166	0x3e83d95d	0.25751773
167	0xbe2c3cb1	-0.16820027
168	0xbec051cf	-0.37562415
169	0x3eb1385a	0.34613305
170	0xbe534a21	-0.20633747
171	0xbe3c346e	-0.18379375
172	0x3e643495	0.22285683
173	0x3e4fe2c9	0.20301355
174	0x3e033d7f	0.12816428
175	0x3e55712e	0.20843956
176	0x3e66ceb2	0.22539786
177	0x3e007238	0.12543571
178	0xbda45282	-0.080235496
179	0x3d1a1503	0.037617695
180	0xbd04beba	-0.032408454
181	0x3ebf217d	0.37330237
182	0xbbf4bcdf	-0.0074688043
183	0x3de6c5c5	0.1126819
184	0xbd39fda5	-0.04540791
185	0x3988a0a3	0.00026059625
186	0xbda120b7	-0.07867568
187	0xbe62358a	-0.22090736
188	0x3e179718	0.14803731
189	0xbec2c2ff	-0.38039395
190	0x3e85aeb9	0.26109865
191	0x3ed59f67	0.41723177
192	0xbb78b0a5	-0.0037947085
193	0xbdc6135d	-0.09671662
194	0x3e0cd517	0.13753162
195	0x3d04bdf6	0.032407723
196	0xbed8e010	-0.42358446
197	0x3bbb7036	0.0057201637
198	0x3e19372c	0.14962453
199	0x3eb997d7	0.36248657
200	0x3db7c05b	0.08972236
201	0x3e9b0cc3	0.30283174
202	0xbd1daa12	-0.03849227
203	0xbe76361e	-0.24044082
204	0x3e9859d3	0.2975603
205	0x3d001e85	0.031279106
206	0x3e1065b8	0.14101303
207	0x3e33c1a3	0.17554335
208	0xbd8b541f	-0.06803154
209	0x3aa564ff	0.00126186
210	0x3dc51258	0.096226394
211	0x3e360aa5	0.17777498
212	0x3e5bde9b	0.21471636
213	0xbec8c98e	-0.39216274
214	0x3e3cd75f	0.18441533
215	0x3d48f1d2	0.049058743
216	0xbe4dcff0	-0.20098853
217	0xbea1f090	-0.31628847
218	0x3e455128	0.1926924
219	0xbe555fd7	-0.20837341
220	0xbe5fb6fc	-0.21847147
221	0xbe9249b4	-0.28571856
222	0xbc00edc9	-0.007869192
223	0xbe5bf3b8	-0.2147969
224	0xbe17459a	-0.14772645
225	0x3e2c5141	0.16827871
226	0xbe371c32	-0.1788185
227	0x3da34124	0.07971409
228	0x3eaac418	0.33352733
229	0xbe61d546	-0.22054014
230	0xbedbf5ed	-0.42961064
231	0x3e907150	0.2821145
232	0xbec5cbf0	-0.38632154
233	0xbe8048e7	-0.2505562
234	0x3e4b37fc	0.19845575
235	0x3e9e72c8	0.30946946
236	0x3e9c4334	0.30520022
237	0x3ebe5f3b	0.3718203
238	0xbe938902	-0.28815466
239	0x3e6edee3	0.23327212
240	0xbe800c8a	-0.25009567
241	0x3e1b537d	0.15168567
242	0x3e31453e	0.1731157
243	0x3eb4cf75	0.35314527
244	0x3d2990d4	0.041397884
245	0xbd1ab47f	-0.03776979
246	0xbe2b54e8	-0.16731608
247	0xbe810130	-0.25196218
248	0x3da5b406	0.08090977
249	0x3d15e5ed	0.036596227
250	0x39eccd24	0.0004516627
251	0x3e58e045	0.21179302
252	0xbe411f3a	-0.18859568
253	0x3d064c38	0.03278753
254	0xbe91a330	-0.28444815
255	0x3d841bc8	0.06450611

main_model.InputLayer.bias f4 [256]
0	0xbe197dcf	-0.14989398
1	0xbe3f4e70	-0.18682265
2	0xbd18f628	-0.037344128
3	0x3ea47ee9	0.32128075
4	0xbcc4fdd9	-0.024046825
5	0xbcdd0c30	-0.02698335
6	0xbd663cdb	-0.05621038
7	0xbc869229	-0.016427116
8	0xbe66e3c0	-0.22547817
9	0xbe55223d	-0.20813842
10	0x3f4c565c	0.79819274
11	0x3ee81712	0.453301
12	0x3ecdf5a5	0.40226474
13	0x3e3a00ca	0.18164364
14	0xbe0d7e04	-0.13817602
15	0xbca78203	-0.020447737
16	0x3e821832	0.25409085
17	0x3f134308	0.57524157
18	0xbe73670e	-0.23769781
19	0xbebce401	-0.36892703
20	0xbd1c7fd8	-0.03820786
21	0xbe9a6f63	-0.30163106
22	0x3f259d14	0.6469281
23	0x3e1380a3	0.1440454
24	0xbed7efa2	-0.42175013
25	0xbcf60ed1	-0.030036362
26	0x3e3e88cd	0.18606873
27	0xbe9c8e56	-0.30577344
28	0xbdb51d18	-0.0884344
29	0xbd0f9f88	-0.03506425
30	0xbebaa27c	-0.3645209
31	0xbe12e36b	-0.14344566
32	0xbed999c2	-0.4250012
33	0xbe8ab353	-0.2708994
34	0x3e1b1c71	0.15147568
35	0xbebd615a	-0.36988336
36	0x3f4eca10	0.8077707
37	0xbdbda86c	-0.092606395
38	0x3f270364	0.6523955
39	0xbc2edcdf	-0.010672777
40	0xbd6cd61b	-0.057821374
41	0xbeb459ef	-0.35224864
42	0xbe3092f3	-0.17243557
43	0xbe3a2e34	-0.18181688
44	0x3f29a5c2	0.6626855
45	0xbd9ce54c	-0.076609224
46	0xbe9f12ed	-0.31069127
47	0x3d6bbafb	0.057551365
48	0xbdeb2e98	-0.114834964
49	0xbe8cd8f8	-0.27509284
50	0x3eb3b5ee	0.3509974
51	0x3ea8c72a	0.3296445
52	0xbddb2978	-0.10701269
53	0xbeca0b2b	-0.39461645
54	0xbe02797f	-0.1274166
55	0xbcb57eca	-0.022155184
56	0xbe44fb51	-0.19236495
57	0x3ea6dd89	0.32590893
58	0x3f2883a5	0.65825874
59	0x3ece0405	0.40237442
60	0xbc650ab3	-0.013979602
61	0x3f114cc9	0.5675779
62	0xbe12832d	-0.14307852
63	0x3d87aa3f	0.06624269
64	0xbe8258f9	-0.25458506
65	0xbeaa0388	-0.3320582
66	0x3de68741	0.112562664
67	0xbe86dee5	-0.2634193
68	0x3f46c6c3	0.77647036
69	0x3f15cd91	0.58516794
70	0xbdafa6fb	-0.08576771
71	0xbeca0565	-0.3945724
72	0xbe4721c0	-0.19446468
73	0xbe4c5d88	-0.19957554
74	0x3f564f86	0.83715093
75	0xbec05cce	-0.37570804
76	0x3ef16fd1	0.47155622
77	0x3e830486	0.2558939
78	0x3e168173	0.14697818
79	0xbe02e9e4	-0.12784535
80	0xbe478504	-0.19484335
81	0x3e05c43d	0.1306314
82	0xbd5a3e0a	-0.05328182
83	0xbe77251f	-0.24135254
84	0x3c729932	0.014807032
85	0x3ecb78c6	0.3974058
86	0xbe5269fc	-0.20548242
87	0xbe42097d	-0.18948932
88	0x3eef748d	0.4676861
89	0x3e9947c1	0.29937556
90	0xbe39e77d	-0.18154712
91	0x3f37ad39	0.7174869
92	0xbd196089	-0.03744558
93	0x3e6a10a4	0.2285791
94	0x3f2b6443	0.6694986
95	0x3e9d5f4c	0.30736768
96	0x3e05c800	0.13064575
97	0x3efa6666	0.4890625
98	0x3ecc2513	0.39872035
99	0x3e0db21d	0.13837476
100	0x3ee63eef	0.4496989
101	0xbed94acf	-0.42439887
102	0x3e081189	0.13287939
103	0xbeaff50f	-0.34366652
104	0x3f03e963	0.51527995
105	0xbebff8c7	-0.3749449
106	0xbdf162dd	-0.11786435
107	0x3e8e977a	0.27849942
108	0xbec3cde3	-0.38243017
109	0xbe719996	-0.23593745
110	0xbe5c168f	-0.2149298
111	0x3effb57e	0.49943155
112	0xbe3e6d1f	-0.18596314
113	0xbed76ce6	-0.4207527
114	0xbeb3936b	-0.35073408
115	0xbd32e4c3	-0.043675195
116	0xbeb1f8e3	-0.34760198
117	0xbe0d9b52	-0.13828781
118	0x3e250e89	0.16118826
119	0xbe08d2e6	-0.13361701
120	0x3cc83dbd	0.024443502
121	0x3e05dc93	0.13072424
122	0xbe5cccb6	-0.21562466
123	0xbe95ec87	-0.2928202
124	0x3efbf5c4	0.49210942
125	0xbc9f64e0	-0.01945728
126	0xbebeb6a6	-0.37248725
127	0x3e820706	0.25395983
128	0xbd55f2a2	-0.052233346
129	0xbda6a2d1	-0.081365235
130	0xbe50f666	-0.20406494
131	0x3f04e51c	0.51912093
132	0xbec20ffb	-0.37902817
133	0xbec93b55	-0.3930308
134	0xbe7139e4	-0.2355724
135	0xbc9d769a	-0.019221593
136	0xbee6679e	-0.4500093
137	0x3e59702a	0.21234193
138	0x3f28f3cd	0.6599701
139	0xbe00e70a	-0.12588134
140	0xbd4c98e7	-0.049950507
141	0xbea61bd2	-0.324431
142	0x3df33b30	0.118765235
143	0xbe699bc5	-0.22813328
144	0x3f0b1cb7	0.5434069
145	0x3de855ac	0.113444656
146	0x3eee2758	0.46514392
147	0xbd9514d8	-0.07279366
148	0xbd6db4b7	-0.05803367
149	0xbd1c59bf	-0.038171526
150	0xbed83519	-0.4222801
151	0x3e019973	0.12656192
152	0xbea02598	-0.31278682
153	0xbe9af921	-0.30268195
154	0xbc36171d	-0.011113909
155	0xbd821efa	-0.063535646
156	0xbe4b8732	-0.19875792
157	0xbebfd128	-0.3746426
158	0xbe9bb499	-0.30411223
159	0xbe39382a	-0.18087831
160	0xbd611a20	-0.054956555
161	0x3e1ef94b	0.15524785
162	0xbe2abd6b	-0.1667382
163	0x3f18cc33	0.59686583
164	0x3cbd51dc	0.023110323
165	0xbe2bf7aa	-0.16793695
166	0x3f1bcbc9	0.60857826
167	0x3f068767	0.5255036
168	0x3d69abb2	0.057048507
169	0x3f5b0ddf	0.8556804
170	0xbdda5637	-0.106609754
171	0x3ede615d	0.43433657
172	0x3ec29837	0.38006756
173	0xbe3074b5	-0.1723202
174	0xbec13fa7	-0.37743875
175	0xbeb5025a	-0.35353357
176	0xbe90c5f7	-0.28276035
177	0x3f40a955	0.7525838
178	0x3ed52821	0.41632178
179	0xbec3a0ee	-0.38208717
180	0xbeb461db	-0.35230908
181	0xbeb8ad50	-0.36069727
182	0xbcba2085	-0.022720585
183	0x3e5a930e	0.2134516
184	0xbde8d006	-0.11367802
185	0xbea70e78	-0.32628226
186	0x3f38cc63	0.7218687
187	0xbed70083	-0.41992578
188	0x3f1a7e14	0.6034863
189	0x3f15eac7	0.58561367
190	0x3eb867fe	0.3601684
191	0x3e21304d	0.15741082
192	0x3f54a459	0.83063275
193	0xbd072c90	-0.033001482
194	0xbc9266af	-0.017871229
195	0x3eb9e3ae	0.36306518
196	0x3df65743	0.120283626
197	0xbd32e873	-0.043678712
198	0xbe331da2	-0.17491773
199	0x3e8963e1	0.26834014
200	0xbdaddd41	-0.084894665
201	0x3f2eee24	0.68332124
202	0x3eaa7d61	0.33298782
203	0x3f30f84a	0.6912886
204	0x3f1ee402	0.6206666
205	0xbea25f4b	-0.31713328
206	0xbe2bbc3f	-0.16771029
207	0xbebaaabd	-0.36458388
208	0xbeccda8f	-0.40010497
209	0x3d96ce36	0.0736355
210	0xbe712cba	-0.23552218
211	0x3ece4ffb	0.40295395
212	0xbea7c56a	-0.32767802
213	0xbe972fa6	-0.2952854
214	0x3cba9cef	0.02277991
215	0xbe581a68	-0.21103823
216	0xbe2b7de5	-0.16747244
217	0x3f39444a	0.72369826
218	0x3eb64799	0.356015
219	0xbe648a49	-0.22318377
220	0xbea64eb5	-0.32481924
221	0xbe9b1d46	-0.3029577
222	0xbe906781	-0.28203967
223	0xbe13326e	-0.14374706
224	0x3f340c64	0.70331407
225	0xbe8a1751	-0.26970914
226	0x3e3c7723	0.18404822
227	0xbc054820	-0.008134872
228	0xbe5796ef	-0.2105367
229	0x3e67e7e4	0.22647053
230	0xbd462cc9	-0.048382554
231	0xbe5ae3ce	-0.21375963
232	0xbe9095b1	-0.28239205
233	0xbe91e5ae	-0.28495544
234	0xbe90984e	-0.282412
235	0xbeca7dbe	-0.3954906
236	0x3f1fe4dd	0.6245859
237	0x3ecc14c4	0.39859593
238	0xbed46b96	-0.41488332
239	0x3efe4b8b	0.4966701
240	0xbe8054be	-0.25064653
241	0x3e82bf4f	0.25536582
242	0x3e9a6696	0.30156392
243	0x3ef27c5c	0.47360504
244	0x3d27e7ee	0.04099267
245	0xbdee76c4	-0.116437465
246	0x3e7cd0bb	0.24689
247	0x3eae292c	0.34015787
248	0xbe9f7e3a	-0.3115099
249	0x3f0c2904	0.54750085
250	0xbdcd05ca	-0.1001087
251	0x3f24c338	0.6436038
252	0xbeae94c8	-0.34097886
253	0x3f57dc68	0.8432069
254	0x3d9ddb46	0.07707839
255	0xbbb0cbc0	-0.0053953826

main_model.hiddenlayer_0.weight f4 [256, 256]
0	0x3b8a9a60	0.0042298287
1	0xbb27fa60	-0.0025631413
2	0x3cbac208	0.0227976
3	0xbd7f81f5	-0.062379796
4	0xbc97288c	-0.018451951
5	0xbcd46df4	-0.025931336
6	0x3d765abc	0.060145125
7	0xbb1643ab	-0.0022928517
8	0xbd3692aa	-0.044573463
9	0xbc96ff8c	-0.018432401
10	0xbd84d97d	-0.06486795
11	0xbd9404f2	-0.07227506
12	0x3cb316f6	0.021861535
13	0x3d02b9c3	0.031915437
14	0x3d18609a	0.0372015
15	0xbc56569d	-0.013082174
16	0xbd4966a9	-0.04917017
17	0xbd4c8d35	-0.049939353
18	0xbc84c770	-0.01620838
19	0xbd4b4ca2	-0.04963363
20	0xbcad2b10	-0.021138698
21	0xbd469754	-0.04848416
22	0x3d0fbab4	0.035090163
23	0x3c6b2c6d	0.014353854
24	0x3b7347e0	0.0037121698
25	0x3c33a5f8	0.010964863
26	0x3cc4226e	0.023942199
27	0xbd1c208a	-0.03811697
28	0x3d1af5c8	0.03783205
29	0xbc858fa4	-0.016303845
30	0xbb6bb5a0	-0.0035966411
31	0x3cd7c234	0.02633772
32	0xbd24ff96	-0.04028281
33	0x3d07ba44	0.03313662
34	0xbd9ac7bb	-0.07557627
35	0x3cf7dc20	0.030256331
36	0x3cee3af4	0.029080845
37	0x3d6bb6fc	0.057547554
38	0xbd6bd4ad	-0.05757587
39	0xbc41cdff	-0.011828898
40	0x3d292a2e	0.04129999
41	0x3b8b59c0	0.0042526424
42	0x3d6e0624	0.058111325
43	0xbd153ac0	-0.03643298
44	0xbd3b30ee	-0.04570096
45	0xbcf15000	-0.029457092
46	0xbd2ec208	-0.04266551
47	0x3d297b77	0.04137751
48	0x3c5f67c8	0.013635583
49	0x3d7ab2aa	0.061205544
50	0xbc656ff4	-0.0140037425
51	0xbd91ab59	-0.0711276
52	0xbbd81a20	-0.006594911
53	0xbc226e38	-0.0099139735
54	0xbd604af2	-0.054758973
55	0xbbf22fc9	-0.0073909503
56	0xbca51950	-0.020153672
57	0xbb4e0c84	-0.0031440565
58	0xb986de8a	-0.00025724276
59	0xbd5a8190	-0.053346217
60	0x3c718fb1	0.014743731
61	0xbd0943ea	-0.033512034
62	0xbd2a8434	-0.041629985
63	0xbd279be5	-0.040920157
64	0x3ce26934	0.027638055
65	0x3c33f1d0	0.010982946
66	0xbc4af4d6	-0.012387475
67	0x3d32641e	0.04355251
68	0xbd09e6bb	-0.033667307
69	0x3ca5a958	0.020222351
70	0x3cc8309c	0.024437241
71	0xbd464054	-0.04840119
72	0x3d5875cc	0.052846715
73	0xbd2c7dcc	-0.042112157
74	0x3d2562e4	0.040377513
75	0x3d51754e	0.05113726
76	0x3d30b8d1	0.043145005
77	0xbd56ba4f	-0.05242377
78	0xbd19208a	-0.037384547
79	0x3b13a000	0.0022525787
80	0xbce8c4bc	-0.028414123
81	0x3b17f6de	0.0023187916
82	0xbd4761e0	-0.048677325
83	0xbd185d40	-0.037198305
84	0xbd76637d	-0.060153473
85	0xba8c93f4	-0.0010725246
86	0x3d72231c	0.059115514
87	0xbd7fca38	-0.06244871
88	0xbd7eb064	-0.062179938
89	0xbca4daf3	-0.020123934
90	0x3d2c746c	0.042103216
91	0xbd58e030	-0.052948177
92	0xbd2bec6c	-0.041973516
93	0x3c37f90b	0.01122881
94	0x39148759	0.00014164801
95	0x3d070167	0.03296032
96	0xbb146a1b	-0.0022646252
97	0xbd529329	-0.051409874
98	0x3d3e9db5	0.04653712
99	0x3d340299	0.04394779
100	0x3cfef0a1	0.0311206
101	0xbca1b3bc	-0.019739024
102	0xbd4acf1d	-0.049513925
103	0x3c940ecc	0.018073462
104	0xbd8bed9f	-0.06832432
105	0xbd78c1a6	-0.060731553
106	0xbbd17450	-0.0063920394
107	0x3cfb77ec	0.030696832
108	0x3cb9d870	0.022686213
109	0xbb7a4a00	-0.003819108
110	0x3bfb7100	0.0076733828
111	0x3ba31e0a	0.004977946
112	0xbd1087c0	-0.03528571
113	0xbd72d976	-0.05928942
114	0x3d758a42	0.059946306
115	0x3d33324e	0.043749146
116	0x3d59450e	0.05304437
117	0x3cd0347c	0.025415652
118	0x3d38e44c	0.045139596
119	0xbcb9bacc	-0.02267208
120	0xbd75788c	-0.059929416
121	0x3cb0fce9	0.021604972
122	0xbc9bbba4	-0.019010372
123	0xbd5ff16a	-0.05467359
124	0xbd8670bf	-0.06564473
125	0x37d7f000	2.5741756e-05
126	0x3c13b3a0	0.009014994
127	0x3b2cb2c5	0.0026351672
128	0xbcb650d8	-0.022255346
129	0xbc5955c0	-0.013265073
130	0x3c0b1ac8	0.008490272
131	0x3cce4159	0.025177645
132	0x3c9ceba0	0.019155324
133	0xbd01bb3a	-0.031672694
134	0xbc7ed628	-0.0155539885
135	0x3c201a88	0.009771951
136	0xbd728f0c	-0.05921845
137	0xbd15d0c4	-0.036576048
138	0xbb22af95	-0.0024823893
139	0xbd71df02	-0.059050567
140	0x3c562a88	0.013071664
141	0xbd049a52	-0.032373734
142	0x3cbcee87	0.023062957
143	0xbd4850ae	-0.048905067
144	0xbd1815f9	-0.03713033
145	0xbced619f	-0.028977213
146	0xbcedb9f5	-0.029019335
147	0xbd2a0316	-0.04150685
148	0x3d65481a	0.055976965
149	0xbc01e7e8	-0.007928826
150	0xbcda3b88	-0.026639715
151	0xbd9b4d61	-0.07583118
152	0x3ce850ac	0.02835878
153	0x3c6a8b68	0.014315464
154	0xbd835623	-0.06412914
155	0xbb385cc0	-0.0028131455
156	0xbd056a04	-0.032571808
157	0xbb11d340	-0.002225116
158	0xbd173cd4	-0.036923245
159	0x3d39df72	0.04537911
160	0x3d6ffe64	0.058592215
161	0xbd9d2d0b	-0.07674607
162	0xbd33b088	-0.043869525
163	0x3ccabbd2	0.024747763
164	0xbd187acd	-0.037226487
165	0xbbf875a0	-0.0075823814
166	0x3d3002df	0.042971488
167	0x3ce0c632	0.027438257
168	0xbd5db5f9	-0.05412862
169	0x3c928cf2	0.017889474
170	0xbcf4b23c	-0.029870145
171	0xbcbf1d3a	-0.023329366
172	0xbd7eb2de	-0.0621823
173	0x3be892c0	0.007097572
174	0xbd1ccda0	-0.038282037
175	0xbd561e56	-0.052275024
176	0xbcedb9ec	-0.029019319
177	0xbc8f556e	-0.01749679
178	0xbd0a8506	-0.033818267
179	0x3cc6979c	0.024242215
180	0xbd40fb86	-0.04711487
181	0xbc68e420	-0.0142145455
182	0x3ba152c4	0.0049231965
183	0xbd2ef03e	-0.04270958
184	0x3d3ba47c	0.04581116
185	0x3d34b5d2	0.04411871
186	0x3cfbe67f	0.030749558
187	0xbd3852e6	-0.045000933
188	0x3c3055b3	0.01076262
189	0xbd25d76c	-0.040488645
190	0xbc3977c2	-0.011320056
191	0xbd32c3b3	-0.043643665
192	0x3cec589a	0.028850842
193	0x3c156ca8	0.009120144
194	0x3c9e08d8	0.019291326
195	0xbca55f6c	-0.020187102
196	0x3cc7d879	0.024395214
197	0x3cc00c94	0.023443498
198	0x3cb99664	0.02265472
199	0xbd0982cb	-0.033572
200	0x3d60ae5a	0.054853775
201	0xbbe16098	-0.00687797
202	0xbcce8b09	-0.025212782
203	0xbd13afa7	-0.036056187
204	0xbc56206f	-0.013069256
205	0x3d321820	0.04348004
206	0xbd061526	-0.032735012
207	0xbd5d6106	-0.054047607
208	0x3cc83fd8	0.024444506
209	0xbd923d73	-0.07140627
210	0xbd76ccfc	-0.060254082
211	0x3cd93afd	0.026517386
212	0x3c2c5bd8	0.010519944
213	0xbc88f24c	-0.016717099
214	0xbd085830	-0.033287227
215	0xbc353d38	-0.011061959
216	0xbd300c5c	-0.042980537
217	0xbd421fa9	-0.047393475
218	0x3d3ec397	0.046573248
219	0xbccbd8d0	-0.024883658
220	0xbd1f133a	-0.038836695
221	0x3cecb6ec	0.028895818
222	0xbc286eb0	-0.010280296
223	0xbd2cf802	-0.042228706
224	0xbcf45b78	-0.029828772
225	0x3c06f390	0.008236781
226	0xbccecfe4	-0.025245614
227	0xbc647b08	-0.013945349
228	0xbbafc8f0	-0.00536453
229	0xbce898b1	-0.028393121
230	0x3b6fe420	0.003660448
231	0x3c201840	0.009771407
232	0xbc0d4050	-0.00862129
233	0xbb014c20	-0.0019729212
234	0x3d37b5e2	0.04485119
235	0x3a344080	0.00068760663
236	0xbd363a5e	-0.044489257
237	0xbcedb810	-0.029018432
238	0x3d5193b4	0.05116625
239	0x3a9c8fcc	0.001194471
240	0xbd36739c	-0.044543847
241	0x3ccf422d	0.02530011
242	0x3bfe7103	0.007764937
243	0x3d3efb08	0.04662612
244	0xbc0202ca	-0.007935235
245	0xbcf1bfa0	-0.02951032
246	0xbd4e59a2	-0.05037845
247	0x3d0bea39	0.03415892
248	0x3d057d4e	0.032590203
249	0xbbb2e6d6	-0.0054596467
250	0xbc7e88f8	-0.015535586
251	0xbd94273c	-0.07234046
252	0xbd6e43c2	-0.058170088
253	0x3d3cacff	0.04606342
254	0x3d00d982	0.03145743
255	0xbcbf911c	-0.023384623

main_model.hiddenlayer_0.bias f4 [256]
0	0x3bab5dbd	0.0052296803
1	0x3c0ce7b6	0.008600166
2	0xbba9809c	-0.005172802
3	0xbcebbd73	-0.02877686
4	0xbcf8f909	-0.030392187
5	0xbbd39cc0	-0.006457895
6	0xbb9b655c	-0.0047423076
7	0x3d618913	0.055062365
8	0x3d694a84	0.05695583
9	0x3d171fc8	0.036895543
10	0x3b94de4e	0.0045431023
11	0x3e907715	0.28215852
12	0xbd947148	-0.07248169
13	0x3d846b58	0.06465787
14	0xbd505ae4	-0.05086793
15	0xbd983869	-0.074326344
16	0xbd6c498c	-0.057687327
17	0x3d1a0dbe	0.03761076
18	0xbc2e3f41	-0.010635198
19	0xbcc8be74	-0.024504878
20	0x3c99ccbc	0.018774383
21	0xbcc6cf18	-0.024268672
22	0xbcca4e2f	-0.024695484
23	0x3cd1fc4d	0.025633002
24	0xbd87139c	-0.06595537
25	0x3bd33775	0.00644582
26	0xbbdbdaca	-0.0067094313
27	0x3d2cd997	0.042199697
28	0x3d270a87	0.040781524
29	0x3e81918f	0.25306365
30	0x3ecacfcd	0.39611664
31	0x3d097775	0.03356119
32	0x3b49b383	0.0030777163
33	0x3db194e1	0.086709745
34	0xbcb2ef94	-0.021842755
35	0xbd677392	-0.0565067
36	0x3d4b2ae0	0.049601436
37	0x3d7478f3	0.05968566
38	0xbd69edea	-0.05711166
39	0xbc310da8	-0.010806479
40	0xbc7cdf78	-0.0154341385
41	0xbcb44130	-0.02200374
42	0xbc2a2814	-0.010385532
43	0xbc9c027f	-0.019044159
44	0x3be60bba	0.007020441
45	0xbc854978	-0.016270384
46	0xb985c3c4	-0.00025513594
47	0x3daf1805	0.08549503
48	0x3cb8fd32	0.02258167
49	0x3cd1aded	0.02559563
50	0xba57235c	-0.0008206868
51	0xbca45a3f	-0.020062564
52	0xbd3241b4	-0.04351969
53	0x3e15d170	0.14630675
54	0xbc40001e	-0.011718778
55	0x3d1012ea	0.035174288
56	0x3cc88fa1	0.02448255
57	0xbd780c41	-0.06055856
58	0x3d5b879f	0.053596135
59	0xbd303194	-0.04301603
60	0x3cf51235	0.029915908
61	0x3cf535b1	0.029932829
62	0xbda1c109	-0.07898147
63	0xbd734079	-0.059387658
64	0xbd8bda5f	-0.0682876
65	0x3d137667	0.03600159
66	0xbd3ccdb4	-0.04609461
67	0x3e8f915d	0.2804059
68	0x3c8b3a48	0.016995564
69	0xbd5f1144	-0.054459825
70	0x3d4a1d80	0.04934454
71	0xbc2215da	-0.009892905
72	0xbd934662	-0.07191159
73	0x3d1a50cd	0.037674714
74	0x3a2ced71	0.0006596661
75	0xbd844c35	-0.06459848
76	0xbc5ca805	-0.013467793
77	0x3cb91fe2	0.02259821
78	0xbd3d7418	-0.046253294
79	0x3e6ddf0b	0.23229615
80	0x3d2293c1	0.03969169
81	0xbc3552f3	-0.01106714
82	0xbd1bdf8c	-0.038054988
83	0xbd2c28db	-0.04203115
84	0x3d3b5b0f	0.045741137
85	0xbd7d4ed4	-0.061842754
86	0xbccb2449	-0.024797576
87	0xbd568b31	-0.052378837
88	0xbbc28d05	-0.005937221
89	0x3c5d677e	0.013513444
90	0xbd174d0a	-0.036938705
91	0x3d2178e7	0.039421942
92	0x3c320d37	0.0108674085
93	0xbce65778	-0.02811788
94	0xbd022ea7	-0.031782772
95	0xbbde14ac	-0.0067773666
96	0xbd61778e	-0.055045657
97	0x3ccf5453	0.025308764
98	0xbd545f3e	-0.051848643
99	0xbc90589b	-0.017620375
100	0xbc096ee5	-0.008388256
101	0xbcfbf20b	-0.030755064
102	0x3d4d2ce6	0.050091647
103	0x3ce16a68	0.027516559
104	0xbc1bf41d	-0.00951865
105	0x3af91583	0.0019003603
106	0xbd57a0cd	-0.052643586
107	0x3cf4eb95	0.02989749
108	0xbd85e3f2	-0.06537618
109	0x3bb8371a	0.005621803
110	0xbc99f324	-0.018792696
111	0x3d055104	0.032547966
112	0x3cf35947	0.029705657
113	0x3c075b29	0.00826148
114	0x3b9eda1f	0.0048477794
115	0xbcf1bcb4	-0.029508926
116	0xbd7b79e6	-0.06139555
117	0xbcd64646	-0.026156556
118	0xbd15be63	-0.03655852
119	0x3b3af3b8	0.0028526615
120	0xbc3bbfa0	-0.011459261
121	0xbd4b8ce4	-0.04969491
122	0xbd437a44	-0.047724023
123	0xbd05748c	-0.03258185
124	0x3c8a9565	0.01691694
125	0xbb600e48	-0.00341882
126	0xbc9e942c	-0.019357763
127	0xba959c5f	-0.00114144
128	0xbca2c94f	-0.019871382
129	0x3bb51004	0.005525591
130	0x3d5c5802	0.05379487
131	0xbbe3c163	-0.0069505437
132	0x3916d504	0.00014384469
133	0xbd079158	-0.033097595
134	0x3c7b5853	0.015340882
135	0xbd85f49a	-0.06540795
136	0xbcd709ee	-0.026249852
137	0xbb5c450f	-0.0033610498
138	0x3d32aacd	0.04361992
139	0xbc0d1113	-0.008610028
140	0x3cafa3fd	0.0214405
141	0xbb84b8e6	-0.004050362
142	0xbbf0bd6e	-0.0073468005
143	0x3ce12f70	0.02748844
144	0x3d57da6d	0.05269854
145	0xbd8ed16e	-0.06973539
146	0x3c00adbb	0.007853921
147	0xbc19ae6c	-0.009379964
148	0x3ce40cf4	0.027838208
149	0x3d2737a5	0.04082455
150	0x3c4299d6	0.011877498
151	0xbcab89aa	-0.020939667
152	0x3e637dea	0.22216001
153	0xbd7c1b59	-0.06154952
154	0xbd8f8ed4	-0.07009664
155	0x3d6b4a80	0.057444096
156	0x3cb68f29	0.022285061
157	0x3c88fd39	0.016722308
158	0x3d159aa9	0.03652445
159	0xbc9db7d7	-0.0192527
160	0xbd2e3a4a	-0.042536058
161	0x3c9fc97c	0.019505255
162	0xbd4904b1	-0.04907674
163	0xba89a7c0	-0.0010502264
164	0xbc553564	-0.013013218
165	0xbd5de9c6	-0.05417802
166	0xbd52174d	-0.051291753
167	0xbd7dde9e	-0.061979882
168	0x3e9455db	0.28971753
169	0xbba08736	-0.004898931
170	0x3c312db6	0.010814121
171	0x3cb489e5	0.02203841
172	0xbd807406	-0.0627213
173	0x3cc81f93	0.024429118
174	0xbd65c651	-0.056097332
175	0xbd0ea70d	-0.03482728
176	0x3b8904b5	0.0041814693
177	0xbcd3683c	-0.025806539
178	0xbb1cbd34	-0.0023916485
179	0xbd1fb615	-0.038992006
180	0xbd8c75a0	-0.06858373
181	0xbda3559a	-0.079753116
182	0x3d62d546	0.055379175
183	0xbc5ffe81	-0.013671518
184	0xbd31c2ae	-0.04339855
185	0xbd542eb3	-0.05180235
186	0x3d436c7d	0.047710884
187	0xb9ced81a	-0.0003945239
188	0xbcc50a6a	-0.024052817
189	0x3cf64452	0.030061875
190	0x3c20470b	0.009782563
191	0xbc9057ed	-0.017620051
192	0x3eaac8f9	0.33356455
193	0x3d2f2736	0.042762004
194	0x3ca22cb6	0.01979671
195	0x3bf9e890	0.0076266006
196	0x3c8d0171	0.017212601
197	0x3c8a4e3d	0.01688301
198	0xbd849dec	-0.06475434
199	0xbd157ca8	-0.036495835
200	0xbd0f81df	-0.035035964
201	0x3b8cfb11	0.0043023904
202	0x3d31a33a	0.043368556
203	0xbd96f25b	-0.073704444
204	0x3d330554	0.043706253
205	0x3ea90c3d	0.3301715
206	0x3e0aef54	0.13567859
207	0xbd6b9b9b	-0.057521444
208	0x3db3766f	0.08762824
209	0x3ecc1413	0.39859065
210	0x3ca2541f	0.019815503
211	0xbc55ef25	-0.013057505
212	0x3ef7d080	0.4840126
213	0x3ca0d8ec	0.019634686
214	0xbce533cc	-0.0279788
215	0x3e14d15b	0.14532988
216	0x3d4e5d4a	0.050381936
217	0xbca1ba2c	-0.019742094
218	0x3d918e53	0.07107224
219	0x3d136a8c	0.035990283
220	0xbc90d248	-0.017678395
221	0xbcc709e2	-0.024296705
222	0xbd357cc4	-0.04430844
223	0x3d0bb729	0.034110222
224	0xbafae3e2	-0.0019141401
225	0xbd3f7065	-0.046738047
226	0xbdad5850	-0.0846411
227	0x3d0f7f4d	0.035033513
228	0x3b51bf49	0.0032004884
229	0xbd70376e	-0.058646612
230	0xbd7d697a	-0.06186817
231	0x3d4dfaa5	0.05028786
232	0xbd192eca	-0.037398137
233	0xbc785099	-0.015155935
234	0x3ef49b29	0.47774628
235	0xbcd1b046	-0.025596749
236	0xbd82c76d	-0.06385694
237	0x3d324e8d	0.043531943
238	0xbc90bd0c	-0.01766827
239	0xbd774e0b	-0.060377162
240	0xbd8f0139	-0.06982655
241	0xbd0ca5a4	-0.034337655
242	0xbd87609a	-0.06610222
243	0xbb08d82f	-0.0020880809
244	0xbd4087d0	-0.04700452
245	0xbd6e135b	-0.058123928
246	0xbb13aed2	-0.002253462
247	0x3d957cd2	0.07299198
248	0x3a181cba	0.00058026204
249	0xbd046585	-0.03232338
250	0x3e0f8ee3	0.1401935
251	0x3d00cca4	0.03144516
252	0x3eb5437b	0.35403046
253	0xbd809fa8	-0.06280452
254	0x3db2be9b	0.08727761
255	0xbc8d331d	-0.017236287

main_model.OutputLayer.weight f4 [3, 256]
0	0xbcbea71b	-0.023273041
1	0xba8a138e	-0.0010534392
2	0x3c02cfc8	0.007984109
3	0xbc9aaff3	-0.018882727
4	0xbba4d2dc	-0.005030019
5	0xbd02141a	-0.03175745
6	0x3c7f7abc	0.015593227
7	0x3d19e546	0.037572168
8	0x3b8928f3	0.0041857897
9	0x3967399e	0.00022051341
10	0xbc931631	-0.017954918
11	0x3e87113f	0.26380345
12	0xbd2e0be8	-0.042491823
13	0x3d03cc7b	0.03217743
14	0x3d003e61	0.03130949
15	0x3cb9ef24	0.022697039
16	0xbd4d9d46	-0.050198816
17	0xbcabc247	-0.020966662
18	0xbd304727	-0.043036606
19	0x3b876215	0.0041315653
20	0xbd47e6c6	-0.048804067
21	0xbc3854c8	-0.011250682
22	0xbd4fbe58	-0.050718635
23	0x3ccf4c14	0.025304832
24	0xbd5499bf	-0.051904436
25	0xbd242bb0	-0.040080726
26	0x3d072a89	0.03299955
27	0xbbd8c827	-0.006615657
28	0xbd26ea7d	-0.04075097
29	0x3e038224	0.12842613
30	0x3e67c91a	0.22635308
31	0x3c3988d4	0.011324126
32	0xbc8a31e3	-0.016869491
33	0x3d3a1604	0.045431152
34	0x3d51989e	0.051170938
35	0xbd59f4c0	-0.053211927
36	0x3bd5b3d2	0.0065216804
37	0x3c18b05c	0.009319391
38	0xbd22de12	-0.039762564
39	0x3d4dd020	0.05024731
40	0xbcf7a538	-0.03023015
41	0xbca6d37e	-0.02036452
42	0x3d0c32e5	0.034228224
43	0xb91e0c3c	-0.00015072612
44	0x3b6c5f74	0.0036067637
45	0x3c4ec448	0.012620039
46	0xbc26a38c	-0.010170829
47	0x3cea200f	0.02857974
48	0xbcb7f3bc	-0.022455089
49	0xbc43dda2	-0.011954697
50	0x3a894feb	0.0010476088
51	0xbd5036de	-0.050833575
52	0x3c8a489c	0.016880326
53	0x3d6cc60a	0.057806052
54	0xbc4dac56	-0.012553295
55	0xbc16b4e0	-0.009198397
56	0x3cec7992	0.028866563
57	0x3bbbadd3	0.0057275086
58	0x3cb7d5d2	0.022440825
59	0xbc0f29fd	-0.008738038
60	0x3d1a0ef2	0.03761191
61	0x3d2f10ba	0.04274056
62	0x3be255ac	0.0069071855
63	0x3d035168	0.032060057
64	0xbc1ffcc1	-0.009764851
65	0xbb89d4ad	-0.004206261
66	0x3b0eec94	0.0021808492
67	0x3e55dfd2	0.20886162
68	0xbd0a1883	-0.033714782
69	0x3c8a6844	0.01689542
70	0xbd45a64c	-0.048254296
71	0x3c5e5026	0.013568914
72	0x3a90e434	0.0011054338
73	0xbc0b6d73	-0.008509981
74	0x3ac7a052	0.0015230274
75	0xbc279fe7	-0.010230995
76	0x3b9257ee	0.0044660484
77	0xbd41d97d	-0.047326554
78	0x3ac1af02	0.0014776888
79	0x3eb9f5e9	0.36320427
80	0x3c879c0f	0.016553907
81	0xbd076831	-0.03305835
82	0x3ca40783	0.020023113
83	0xbc316050	-0.010826185
84	0xbd524663	-0.051336657
85	0xbd74b0e6	-0.059739016
86	0xbd376618	-0.0447751
87	0x3abd9bf5	0.0014466034
88	0xbc3eead2	-0.011652665
89	0xbc1036ef	-0.00880216
90	0x3ca5cfcc	0.020240687
91	0x3cd37415	0.025812188
92	0xbceb9515	-0.028757611
93	0xbc960670	-0.018313617
94	0xbc04f95c	-0.0081160925
95	0xbd3c8071	-0.04602093
96	0xbd6821b6	-0.056672774
97	0xbccd29dd	-0.025044376
98	0xbd490efa	-0.04908655
99	0xbc1124bc	-0.008858856
100	0xbb7a6d42	-0.0038212095
101	0xbcb7c9e1	-0.02243513
102	0xbc3cde6b	-0.011527638
103	0x3c408478	0.011750333
104	0xbb8bf758	-0.004271429
105	0xbc72f2fd	-0.014828441
106	0xbc9a5ca4	-0.018843003
107	0xbbede36d	-0.0072597773
108	0xbc801865	-0.015636632
109	0xbd00a704	-0.03140928
110	0xbd242272	-0.040071912
111	0xbb84fca4	-0.0040584374
112	0xbcf84283	-0.030305153
113	0x3d066549	0.032811437
114	0x3d51e461	0.05124319
115	0xbd5589c2	-0.05213333
116	0x3d4b23dd	0.04959475
117	0x3ba98e47	0.0051744315
118	0xba08cc62	-0.00052184437
119	0xbcf7e250	-0.030259281
120	0x3ca9cff1	0.020729037
121	0xbca90052	-0.020630036
122	0xbc4c164a	-0.012456486
123	0x3d2ed54c	0.042683885
124	0xbd282294	-0.0410486
125	0xbcfc635a	-0.030809093
126	0x3c2fe498	0.010735653
127	0xbb28248c	-0.002565655
128	0x3cd0705c	0.025444202
129	0xbc0241fc	-0.007950302
130	0x3cb71538	0.022348985
131	0xbc06e97a	-0.008234376
132	0xbd48de31	-0.049040023
133	0x3d089917	0.033349123
134	0xbcf19136	-0.029488187
135	0xbd1bd80d	-0.03804784
136	0xbbad9cbe	-0.005298226
137	0x38f2c396	0.0001157589
138	0xbcd3e54d	-0.025866175
139	0x3c563587	0.013074285
140	0xbbe0a244	-0.006855281
141	0x3c097105	0.008388762
142	0x3c09c703	0.0084092645
143	0xbd134b78	-0.035960644
144	0xbb1e5064	-0.0024156803
145	0x3d7741bb	0.06036542
146	0x3cd6972e	0.026195135
147	0xbb9a48c9	-0.0047083837
148	0x3d6780d8	0.05651936
149	0xbd136423	-0.03598417
150	0x3c3b0e53	0.011416989
151	0x3c9f04f5	0.019411543
152	0x3e60df89	0.21960272
153	0x3c341688	0.0109917
154	0xbb931d27	-0.004489559
155	0x3c50b442	0.012738289
156	0xbcdaf735	-0.026729206
157	0x3cadb5ee	0.021204915
158	0x3d2850f9	0.041092847
159	0xbc1f853f	-0.009736358
160	0xbc60ee38	-0.013728671
161	0x3cd740c5	0.026276002
162	0xbc144dab	-0.009051721
163	0x3d1e6354	0.038668945
164	0xbc4c6e8e	-0.01247753
165	0xbba7c780	-0.005120218
166	0xbb5c7fa6	-0.003364542
167	0xbcc126c0	-0.023578048
168	0x3e8f69cb	0.280104
169	0x3ccac9e7	0.024754478
170	0xbc5dda8c	-0.013540875
171	0xbd34427d	-0.04400872
172	0x3d56e4e4	0.05246438
173	0x3d82197c	0.06352517
174	0xbb1a0651	-0.00235023
175	0x3cd96a4b	0.026539942
176	0x3cc289fd	0.023747439
177	0x3d1a6ad8	0.03769955
178	0x3d369a06	0.044580482
179	0xbc13d2d4	-0.009022433
180	0xbc6db345	-0.014508073
181	0x3c9ac9ff	0.018895147
182	0xba50b4f4	-0.00079615344
183	0x3cce03c0	0.025148273
184	0xbd557a69	-0.052118693
185	0xbc841ef2	-0.016128037
186	0xbc95ba0e	-0.018277194
187	0xbd1b8a38	-0.037973613
188	0xbbb20116	-0.0054322584
189	0x3c72aa5f	0.014811127
190	0x3c8aa87a	0.016926039
191	0xbd24f5b5	-0.040273387
192	0x3e9a2462	0.30105883
193	0x3b231c27	0.0024888606
194	0xbc897fab	-0.01678451
195	0xbd06f672	-0.032949872
196	0x3cb5cdcf	0.022192864
197	0xbd0abd9e	-0.03387224
198	0xbcd9f354	-0.026605286
199	0xbd5267a8	-0.051368386
200	0xbb92121b	-0.0044577247
201	0xba9a7ca8	-0.0011786418
202	0x3bd89c14	0.006610403
203	0xbc716239	-0.014732891
204	0xbd659094	-0.056046084
205	0x3c3aa018	0.011390708
206	0xbb51efb1	-0.0032033736
207	0x3d35040e	0.04419332
208	0x3c0d933d	0.008641061
209	0x3e038f8a	0.12847725
210	0x3b7167c2	0.0036835526
211	0xbd0227fa	-0.031776406
212	0x3ed1038f	0.40823027
213	0xbd6ec898	-0.05829677
214	0xbb005431	-0.0019581432
215	0x3dabc609	0.083873816
216	0x3b3549b1	0.0027662332
217	0x3d1a46ae	0.03766506
218	0x3d0c42b8	0.034243315
219	0xbd2023db	-0.039096694
220	0xbd283f6e	-0.041076116
221	0x3e2a9bac	0.16660947
222	0xbd4a63a0	-0.049411416
223	0xbb179344	-0.0023128549
224	0x3cce8056	0.02520768
225	0xba0bb5d5	-0.0005329524
226	0xbb7adc64	-0.0038278336
227	0xbc14e37d	-0.009087441
228	0xbd0f1a3e	-0.034937136
229	0xbc91a8bb	-0.017780652
230	0x3d0caf1c	0.034346685
231	0xbc39f2a2	-0.011349352
232	0xbcbe0f90	-0.02320078
233	0x3d2bf3ec	0.04198067
234	0x3dffc46e	0.12488638
235	0x3d1b08ba	0.03785012
236	0xbd22fb2e	-0.039790325
237	0x3c5755e0	0.013143033
238	0xbcddc5e0	-0.027071893
239	0x3d3a197e	0.045434467
240	0x3d75794e	0.05993014
241	0x3c5192b6	0.012791326
242	0x3ca18119	0.019714879
243	0xbcf74237	-0.03018294
244	0xbd0d9011	-0.03456122
245	0x3c041448	0.008061476
246	0x3d2c1ebc	0.042021498
247	0x3c9bb9f6	0.019009572
248	0xbc5d9cf8	-0.013526194
249	0xbd904ef4	-0.07046309
250	0xbba2191b	-0.0049468405
251	0xbd19385e	-0.03740727
252	0x3e87236a	0.26394206
253	0x3d5cc730	0.053900898
254	0x3d2c6a21	0.0420934
255	0x3c7f0289	0.015564569

main_model.OutputLayer.bias f4 [3]
0	0x3d6a137a	0.05714748
1	0x3d9054e3	0.07047441
2	0xbd2fe0e3	-0.042939078
